src/server/flask-backend/color_classifier.pth (torch, 182370 bytes, 6 tensors)

fc1.weight f4 [64, 3]
000000 6e 58 a5 3f bc 91 e4 3f 49 4c 7e bd ba 0f 3f 3f
       1.2917612 1.7856975 -0.06208447 0.7463337
000010 1e 78 40 bf ef 24 c1 3f ad bd ad be d8 91 09 bf
       -0.75183284 1.5089396 -0.33933774 -0.53738165
000020 86 1e 2f bf d2 53 b9 bd 7b 40 00 40 d0 42 87 3f
       -0.6840595 -0.090491906 2.0039356 1.0567265
000030 ba 00 c2 3f c9 c9 b3 3c a5 95 e7 3f 90 c8 ed bd
       1.5156472 0.021946805 1.8092543 -0.1161052
000040 04 9b e7 bd 28 4e 76 3e 1c 65 9f bd f9 bf 5b bf
       -0.11308864 0.24053252 -0.07782957 -0.858398
000050 2c d2 d1 3f f0 cf 8f 3d b0 60 7b bd 10 e7 2b bd
       1.6392264 0.07022083 -0.061371505 -0.041968405
000060 c0 f7 a9 bf 22 7b 3d 3f b2 1c 24 be b6 5b 75 3f
       -1.3278732 0.7401601 -0.16026571 0.95843065
000070 14 71 e2 3f ac 62 7a bf cf 71 d0 bd 00 f6 bb 3f
       1.7690759 -0.9780681 -0.10177957 1.4684448
000080 50 d3 0b 40 6a 37 9c bf aa 67 b6 3d d8 63 39 3f
       2.1847725 -1.2204411 0.08906491 0.72417974
000090 46 0a 5a be e0 c2 d1 bc b0 3f 34 3d c8 b1 0a bf
       -0.21292982 -0.025605619 0.04400605 -0.5417752
0000a0 85 89 b3 be ec 05 08 3f 48 ed 08 3f 94 0c bb bf
       -0.35065857 0.53134036 0.5348706 -1.4613214
0000b0 4f 52 43 be d5 32 b5 3e 82 66 42 bf 96 f7 59 bf
       -0.19074367 0.35390344 -0.75937665 -0.8514341
0000c0 fb 51 96 3e e0 46 20 3f d9 79 6d 3f 25 99 83 be
       0.2935942 0.62608147 0.9276405 -0.25702778
0000d0 e4 9d 64 be 34 ea 0c 3e 78 de 27 be aa 28 78 be
       -0.22325855 0.13761216 -0.16393459 -0.24234262
0000e0 0a 4b 81 be f6 ef a1 be c9 9a 78 bf 00 dd c5 be
       -0.25252563 -0.31628388 -0.97111183 -0.38645172
0000f0 08 66 99 3e 03 30 f9 3f b2 22 89 bf ad 9b ae 3f
       0.29960656 1.9467777 -1.0713713 1.3641258
000100 6d a5 dc bf fd 5d 74 bd 77 60 a1 3f fa 87 b6 3f
       -1.7237984 -0.059659947 1.2607564 1.4260247
000110 91 68 7e 3f 11 85 6e 3f 86 f7 df 3f 69 dd 7c 3f
       0.99378306 0.93171793 1.7497413 0.98775345
000120 ca 34 0e bf c6 58 86 3e 22 e5 02 bf 0f 7d eb 3f
       -0.555493 0.26239604 -0.5113088 1.839754
000130 d2 4e 88 be de 1c 6d bd f8 8a c9 3f 24 4a c4 be
       -0.26622635 -0.057888858 1.5745535 -0.38337815
000140 26 56 b9 3f 3c be 06 bf 2d ac 55 3f 84 ea 90 3f
       1.4479415 -0.52634025 0.83465844 1.1321568
000150 ca 98 89 be eb 6e c2 be 87 fd 09 bf b0 ba 13 bf
       -0.2687438 -0.3797525 -0.5390248 -0.5770674
000160 68 ba d8 3e 3b 1d 82 be e6 bb 27 3f 70 ad c4 bf
       0.42329717 -0.25412926 0.65521085 -1.5365429
000170 4b 56 82 be 7a 7f d4 3f 33 75 96 bf ca ee 2d bf
       -0.2545646 1.6601403 -1.1754516 -0.6794249
000180 47 91 18 bf 5f 9e 8a 3f a3 ea bd bf 69 39 5d 3f
       -0.59596676 1.0829581 -1.483723 0.86415726
000190 0a 19 ab 3f 9f ff 62 3f 60 65 86 3e ce be d0 be
       1.3367016 0.88671297 0.26249218 -0.40770572
0001a0 cb cd b8 bf 34 86 bb 3f 9e 7b 40 bf 14 ba d3 3e
       -1.4437803 1.465033 -0.75188625 0.41352904
0001b0 5a 6b 44 bf 30 51 8b 3f 11 f6 04 be cc 6e 6a 3f
       -0.76726305 1.0884151 -0.12984492 0.9157531
0001c0 00 0b 0c 3e b7 5b ff 3f 13 1f c5 3f 33 f9 d8 3e
       0.13676071 1.9949864 1.5400108 0.42377624
0001d0 0f 6f 28 3f c8 6c c8 bc c4 92 ee 3e f6 a2 e0 be
       0.6579446 -0.024465933 0.46596348 -0.4387433
0001e0 e4 3a 7a bf 43 bc 3a 3f 02 df 82 3f ff 4d c9 3f
       -0.9774611 0.72943515 1.0224307 1.5726928
0001f0 88 2d 85 3e 93 e1 b8 3f f6 fc 3c be 86 85 9c be
       0.260113 1.444384 -0.18455872 -0.3057062
000200 9a f6 94 3e f6 1a d5 3f 4c d7 c3 be 5e 49 20 bf
       0.29094392 1.6648853 -0.38250196 -0.6261195
000210 3c 6d 95 bf 4f 74 cf 3f 42 16 84 3f d0 d6 7f bd
       -1.1673961 1.620737 1.0319293 -0.06246072
000220 7c ed a2 bf 1d b1 88 3f d3 32 26 3e 7e 19 7f 3e
       -1.2728724 1.0679051 0.16230325 0.24912068
000230 c3 46 11 be ae eb df be ae 9f 5a bf 72 f5 d8 3f
       -0.1418715 -0.43734497 -0.853999 1.6949904
000240 cd f1 7b 3e 63 0a 46 3f 5b 5a c8 bf 62 db b9 3f
       0.24603958 0.773596 -1.5652574 1.4520075
000250 01 2e 9f bf f5 64 52 3f 12 c3 64 bf 73 4e 42 3f
       -1.2435914 0.821853 -0.89360154 0.75900954
000260 31 a3 f5 3f 1d 42 a1 be 50 3d e1 3d d8 bc 41 3e
       1.9190427 -0.31495753 0.109980226 0.18919694
000270 14 f2 1e be d0 6a 0b bf 00 a0 19 39 05 da 3e 3f
       -0.15522033 -0.5445986 0.00014650822 0.7455142
000280 38 fa 4d 3f 49 e3 d2 bf da 1e 3a bf 74 b8 7d bf
       0.8045993 -1.6475612 -0.72703326 -0.9910958
000290 56 d7 9f 3f c0 ac a5 bf 98 05 d6 3f 13 14 7b 3f
       1.248759 -1.2943344 1.6720457 0.98077506
0002a0 e0 76 1e bd d6 43 dc be 5a 86 08 bf 79 41 e0 3f
       -0.038687587 -0.43020505 -0.53330004 1.7519981
0002b0 2e 12 9c 3d cd 2c 5a bf 6c 7f de 3e ef 30 e6 3f
       0.07620655 -0.8522461 0.4345659 1.7983683
0002c0 cd c8 ac bf bd 1e 18 3f 6b d7 91 3f bb b3 c7 bf
       -1.349878 0.594219 1.1393865 -1.5601724
0002d0 e8 97 05 3f eb f4 ec 3f 40 4a a8 3f 27 5f e0 be
       0.52184916 1.8512243 1.3147659 -0.43822595
0002e0 78 6e 89 3d d8 ab ac 3d 40 89 92 3d 7b 46 0e bf
       0.06710523 0.08431214 0.071550846 -0.55576295
0002f0 48 f4 d3 3e b3 2c bc be a4 5c e2 bd 2a a5 1d be
       0.4139731 -0.36752853 -0.11052826 -0.15395036

fc1.bias f4 [64]
000000 67 06 a9 be 09 77 33 bd 16 f3 c6 3f 5c 09 f1 bc
       -0.33012697 -0.043814693 1.5542934 -0.029423408
000010 69 27 cf be 73 22 ad be 1b 6f 6b 3f a4 bf bc be
       -0.40459755 -0.33815345 0.9196641 -0.3686496
000020 14 01 b4 3f b5 a6 b7 bd b7 e4 d6 bd b4 cb 97 3f
       1.4062829 -0.08967344 -0.10492843 1.185904
000030 60 f3 10 bf 59 23 10 bf 27 3a ad 3f be 1e b5 3f
       -0.5662136 -0.56303936 1.3533372 1.4150007
000040 8f 26 8d 3f cf c1 d7 be 66 71 4c be 94 69 d6 3f
       1.1027392 -0.42140052 -0.19965133 1.675097
000050 49 ee 87 3e d0 16 97 3f d4 f1 1a bf 30 01 42 be
       0.26548985 1.1803837 -0.6052525 -0.18945765
000060 35 3d 05 bf 7f 40 4f 3e 4f 63 82 bd bf 73 9d 3f
       -0.5204652 0.20239447 -0.06366598 1.2300948
000070 a0 98 6b be a3 f3 f5 be f8 c2 b5 3f 73 e5 82 3f
       -0.2300744 -0.48037443 1.4200125 1.0226272
000080 0f 27 a7 3f 5b 29 90 3f 07 e1 d9 3f a4 af 4b 3e
       1.3058795 1.1262621 1.7021798 0.1989122
000090 c2 71 a8 3f 1b a3 94 be 21 16 77 be 5a 02 f5 be
       1.3159716 -0.2903069 -0.24129535 -0.47853357
0000a0 1c f5 ba 3f 61 98 de be be 30 a4 be c0 cd 49 3f
       1.4606051 -0.4347563 -0.32068437 0.78829575
0000b0 55 1d 53 3f 8a 96 80 3f 4d bc d9 be 4e d3 80 3f
       0.8246663 1.0045941 -0.42526475 1.0064485
0000c0 4d 61 89 3f 8f de a9 3e 6c f6 20 3f 6e 64 f9 be
       1.0732819 0.3317761 0.6287601 -0.48709434
0000d0 9a 41 db be 55 cb 83 3f 70 06 b7 3f 6e 67 70 3f
       -0.42823488 1.0296427 1.429884 0.9390782
0000e0 8c 1a b2 be 19 44 3e 3f 90 b1 91 3e b6 b1 93 3f
       -0.3478588 0.7432266 0.28455782 1.1538608
0000f0 cd 32 b2 be 70 cc a6 be d1 cc 12 bf 00 51 87 bd
       -0.34804383 -0.32577848 -0.57343775 -0.066072464

fc2.weight f4 [32, 64]
000000 28 cb 95 bd 52 2a cc bc dc 2f 8b bc 20 ac 03 be
       -0.073141396 -0.024922524 -0.016990595 -0.12858629
000010 f5 0f 62 3d 22 5c a3 3d 17 13 ab b9 24 f9 08 bd
       0.055191 0.07976557 -0.00032629885 -0.033440724
000020 06 24 82 3d d2 a1 cf bc 3e 6e c1 bd 64 fa f4 3b
       0.06354527 -0.025345717 -0.09444855 0.007476138
000030 68 d6 ee 3d f6 b3 dd bd d2 41 02 bd 1a 78 b3 3d
       0.116619885 -0.108253404 -0.031801052 0.08763142
000040 55 e3 c3 bd 06 19 b1 bd 0e 39 83 3d e7 4f 7a bd
       -0.095648445 -0.08647351 0.06407367 -0.061111357
000050 70 f0 1f 3d c7 a3 1d 3d 46 ca d6 3c da 3c e0 3c
       0.03904766 0.03848627 0.026219498 0.027372766
000060 9e fc c2 bd 99 ee 2b be c7 e3 15 be de 40 09 be
       -0.09520839 -0.16790237 -0.14637671 -0.13403651
000070 36 58 de bd 24 ac fc bd ce ec 2d 3d 0a 72 44 3d
       -0.10856669 -0.12337521 0.042462163 0.04796032
000080 cc 1c 87 bd 84 3a 70 3c 36 fe b7 3b f3 54 ac bc
       -0.065972894 0.014662389 0.005615021 -0.0210366
000090 97 57 6b bb 4e 90 d6 bd 73 b2 6c 3d 54 b1 ab bd
       -0.0035910362 -0.10476743 0.05778737 -0.08383432
0000a0 84 a5 58 3d a9 cf c4 bd 00 26 47 3b 47 06 fd bc
       0.052892223 -0.096099205 0.003038764 -0.030886782
0000b0 91 15 ec 3d 3e e5 e6 bc eb b0 c0 3d 2a be 0e be
       0.11527551 -0.028185483 0.094087444 -0.1393973
0000c0 45 28 98 bd 27 4b cf 3c c9 34 11 3d 68 4b ac 3d
       -0.07429556 0.02530439 0.03545073 0.0841282
0000d0 3e 25 f7 bd 07 70 c4 3d 87 15 f2 ba 9f d0 19 bd
       -0.1206765 0.0959168 -0.001846955 -0.037552472
0000e0 b8 af de 3d ce 33 76 3d 5c 61 ac bd 94 15 28 3c
       0.108733594 0.060108 -0.08417007 0.010259051
0000f0 59 ae ab bd 08 ee 5f bd f8 ec db bd 40 0c cd 3b
       -0.083828636 -0.054670364 -0.107385576 0.006257564
000100 43 98 d6 bd d8 63 16 3d 47 b4 64 3d 12 9d 05 be
       -0.1047826 0.036716312 0.05583599 -0.13048199
000110 fc bd 1f 3d 46 9c fc 3d 18 b1 fc bd 8e 7c 8e bd
       0.038999543 0.12334494 -0.123384655 -0.06957351
000120 e9 0a a0 3c 47 4d 3e bc b6 f3 7e bc 7a 09 6d 3d
       0.019536452 -0.011615104 -0.015561035 0.057870366
000130 4e a2 84 3d 48 4a d1 bc dd 67 3b 3d 00 8b d6 3d
       0.0647627 -0.025548115 0.04575335 0.10475731
000140 3e d8 f1 bd 66 25 d8 3d 9a c6 df bd 5d 7a 25 bd
       -0.11808823 0.10554008 -0.10926552 -0.040399898
000150 55 23 ad 3d 7d 1a a4 3d 65 01 1b be 82 e4 81 bd
       0.08454005 0.08012865 -0.1513725 -0.063424125
000160 02 03 ae 3d 7c ed 10 be ee 05 e5 bd 2b 8f dc 3d
       0.084966674 -0.14153093 -0.111827716 0.107694946
000170 c0 4f c5 bc 3a 99 b4 bd e0 02 1b 3d 82 72 fd 3c
       -0.02408588 -0.08818288 0.03784454 0.03093839
000180 0f 3a ae bd a6 d7 f2 bd a6 2e 93 bd 61 56 da 3d
       -0.085071675 -0.11857538 -0.07186632 0.10661007
000190 8b eb d0 bd 35 63 18 bd 3a 60 7a bd 0c 66 fe bd
       -0.10201176 -0.037203986 -0.061126925 -0.12421808
0001a0 24 df fa 3d 53 9b 98 bd 7c d1 e2 bd 25 6c e8 bc
       0.12249592 -0.07451501 -0.11075112 -0.02837188
0001b0 13 6a 0e bd c1 24 93 3d 86 f4 c9 bd 9c 75 5e bd
       -0.03476913 0.071847446 -0.09861092 -0.05431138
0001c0 d3 03 fb bd 59 49 cb 3d 4f 13 4c bd 82 79 cd 3d
       -0.12256589 0.09926099 -0.0498231 0.100329414
0001d0 88 23 40 bd d2 b5 b4 3c 7f cc 7c 3c 61 92 5e bd
       -0.046908885 0.022059355 0.015429615 -0.054338817
0001e0 14 8a 09 3d b3 af 98 3b b9 77 ed 3d 8e 27 1b bd
       0.033578947 0.004659617 0.11595101 -0.03787952
0001f0 99 1a 65 3d 98 d6 31 bd 30 21 4a 3c bc bd be bd
       0.05593357 -0.043417543 0.012337014 -0.09313533
000200 88 b8 d0 3d ef 32 71 bf 9e d1 68 3f ac eb 5a 3e
       0.101914465 -0.94218343 0.9094485 0.21378964
000210 c4 ae 19 bf 6c 6c a1 bd 5b c8 ec bd 5e 74 cf bd
       -0.60032296 -0.07882008 -0.11561652 -0.10129617
000220 f8 db 99 3f 7e 09 00 3f e9 5d 70 be 76 a9 4b 3f
       1.2020254 0.50014484 -0.23473324 0.7955545
000230 f4 77 a3 bd dc d8 62 3d 3e 77 3b 3e 9a 79 28 3f
       -0.079818636 0.055382594 0.18307206 0.6581055
000240 a6 d9 8b 3d ec f7 c6 3d f0 6d cb bc 87 3f 22 3f
       0.068286225 0.09715256 -0.024832696 0.63378185
000250 dd b4 3c 3f 40 dd e8 bd 8a cd 7a be 2d 8b 06 be
       0.73713475 -0.11370325 -0.2449247 -0.13139029
000260 4c d0 29 bd cf 52 b6 be 4b 2e 11 bf d3 4f b9 3e
       -0.041458413 -0.35610053 -0.5671126 0.36193714
000270 c8 a3 47 3d ac 90 24 3d ff 53 c6 3d a4 e8 57 3d
       0.04874018 0.040177032 0.0968399 0.052712098
000280 01 8c ab 3f 8f 18 e3 3d 12 bb 61 3f 0d 09 cc be
       1.3402101 0.110886686 0.8817607 -0.39850655
000290 2f aa 3e 3f 28 8e 1c bf 37 c1 9d be 68 b6 62 3a
       0.7447843 -0.61154413 -0.30811474 0.00086483965
0002a0 0b 3c f5 3e cd 33 33 bf 18 ec 1d 3d 14 be 1a 3e
       0.47897372 -0.70000917 0.038555235 0.15111572
0002b0 0b e4 17 3f 81 56 5c bd 94 c0 5d 3d 7d 42 d8 bd
       0.5933234 -0.053793434 0.054138735 -0.10559557
0002c0 75 0b 67 3f fb 94 2e bf 33 67 00 3e f4 90 d5 3d
       0.9025186 -0.68196076 0.12539367 0.10428038
0002d0 60 e5 19 3d cc 6a 6b 3f 50 53 4b 3e db f0 e0 3e
       0.037572265 0.91959834 0.19856 0.43933758
0002e0 1c 32 f9 bd 37 83 2f 3e e8 73 5c 3f 04 e0 2a 3f
       -0.12167761 0.17139898 0.8611436 0.6674807
0002f0 3b 91 47 be c4 ef 6f bd 84 fa a0 bd 6c c7 e9 bd
       -0.19488995 -0.058578268 -0.07860282 -0.1141499
000300 20 ba 3d 3c 08 da d0 bd d8 9a 3b bd 24 c7 3a bd
       0.01158002 -0.10197836 -0.045801967 -0.04560007
000310 12 3e df bd 26 1a 94 3d 5c 4a 03 3d 2c 2d e1 3d
       -0.10900511 0.0723155 0.032053337 0.10994944
000320 40 ea ca bd 88 c5 f9 bc a0 9a c6 bd 12 08 8c 3d
       -0.09907961 -0.030489698 -0.09697461 0.06837477
000330 ac 85 74 3d 12 e2 ca bd dc bf 68 3d 70 ac 30 bd
       0.059697792 -0.09906401 0.056823596 -0.0431332
000340 22 c4 94 3d 58 85 f2 3d 10 be 61 bc 08 e1 a8 bd
       0.07263972 0.118418396 -0.013778225 -0.08246046
000350 64 4c 2f 3d e0 8e 9f 3c ca 94 fd bd 48 36 ab bd
       0.04279746 0.019477308 -0.12381895 -0.08359963
000360 b0 a8 f1 3c 9e 36 ac bd c6 67 84 bd 6c 33 00 3d
       0.029499382 -0.08408855 -0.06465106 0.03129904
000370 50 b4 31 3c 4c 26 fa bd ca f4 98 bd f4 9e 0c 3d
       0.0108462125 -0.12214336 -0.07468565 0.034331277
000380 54 4e 1b 3d a0 6d 98 bd 68 30 a8 bc 14 53 3d bd
       0.037916496 -0.07442784 -0.020530894 -0.046221808
000390 10 fe de bd 10 71 e7 3c 58 8e dd 3c be fd 88 bd
       -0.10888302 0.028252155 0.027045414 -0.066890225
0003a0 80 d1 bd 3c 00 46 c4 3d 02 0d e7 bd a8 a6 8a bc
       0.023171186 0.09583664 -0.11281778 -0.016925171
0003b0 ec bd ac bd b6 3d fe 3d 80 78 a3 bc a8 a7 32 bd
       -0.08434662 0.12414114 -0.01995492 -0.04361692
0003c0 fe 4d d2 3d 68 e5 06 bd ca 51 db bd bc 8a 0f bd
       0.10268782 -0.032933623 -0.107089594 -0.035044417
0003d0 60 59 89 bd 84 5d 84 bd b0 07 35 bd e8 16 1f 3d
       -0.067065 -0.06463149 -0.044196784 0.038840204
0003e0 00 4d 71 3b 10 58 0c 3d 70 b7 f4 3d 60 7d 37 bc
       0.0036819577 0.03426367 0.119490504 -0.011199325
0003f0 de 91 fc bd 4e 58 b3 bd a0 78 14 bd 38 73 c0 3d
       -0.123325095 -0.08757077 -0.03624785 0.09396976

fc2.bias f4 [32]
000000 66 33 e5 3b 0c 37 6f 3d a8 e3 ec 3e 74 94 97 bd
       0.0069946526 0.058402106 0.46267438 -0.07401362
000010 64 17 d6 3d 6d 8c 8a 3e eb 58 98 3e 62 c9 f7 bd
       0.1045368 0.2706026 0.2975534 -0.120989576
000020 20 f3 85 3d 86 bc db 3d c4 25 fa bd e8 7c c5 3d
       0.06540513 0.10729317 -0.122142345 0.096429646
000030 cc a4 33 bd 98 c7 00 3f 85 b5 e7 3e c8 b0 cd 3c
       -0.043858334 0.50304556 0.45255676 0.02510871
000040 74 03 5c 3c e7 72 02 bb b4 05 05 3e cf 46 fc 3d
       0.013428558 -0.0019904913 0.12990457 0.12318193
000050 cf b5 18 be 99 d7 e8 bd c2 a8 8d 3d 86 bb de bd
       -0.14913104 -0.11369247 0.069169536 -0.10875611
000060 67 22 65 3e ae 68 e1 3e 6e de ca bd c1 77 cd bd
       0.22376405 0.44025177 -0.09905706 -0.10032607
000070 c1 7f 3b 3e 48 cc 31 3d be 17 fb 3d c3 f6 92 3c
       0.18310453 0.04340771 0.12260388 0.01793993

fc3.weight f4 [1291, 32]
000000 7d e1 3b be fa 86 17 3d fb 02 9a bc f1 9a 0d 3e
       -0.18347736 0.036993958 -0.01880025 0.13828637
000010 af a6 9b be 4b ec 98 bf db 2c 10 3c 51 8b 8c bd
       -0.30400607 -1.1947111 0.008799757 -0.0686251
000020 c6 37 b2 3a b7 7c 0c be 92 b8 94 3d 6e 77 4f be
       0.0013596944 -0.1371945 0.072617665 -0.20260403
000030 d4 28 29 bd 74 22 b9 be f9 80 8c bd 06 fc f5 bd
       -0.041298702 -0.36159098 -0.06860537 -0.1201096
000040 3f 21 1f be 0f 5c a4 3d 67 2b 31 bf ad c0 a6 3d
       -0.15540026 0.08025371 -0.6920685 0.08142219
000050 7a 94 40 be c7 5c 8e 3d 8c 45 a2 be 20 d7 31 be
       -0.1880664 0.069512896 -0.31693685 -0.1736722
000060 6a b8 64 bd 61 ec 4a bb cf 59 03 3e 00 29 92 3d
       -0.055839933 -0.0030963647 0.12827228 0.071367264
000070 ba 05 80 bf 4f 50 33 3d 9a 06 81 be 41 53 54 bf
       -1.0001748 0.04377776 -0.2520035 -0.82939535
000080 02 b5 bc bd 5a 94 cc bd a3 51 e9 bd f0 3c e7 3c
       -0.09214212 -0.09989233 -0.11392524 0.0282273
000090 91 fb d0 bc b0 3a 8f be 18 ef fd bd 46 b4 e8 bd
       -0.025510581 -0.27974463 -0.12399119 -0.113625094
0000a0 8f 2f d9 3d c1 46 83 3d 48 09 af 3c ff 97 f3 be
       0.10604774 0.064099796 0.02136673 -0.475769
0000b0 18 21 d4 3c f4 31 2f be 63 da bf be ca 2a ec 3d
       0.025894687 -0.171089 -0.37471303 0.11531599
0000c0 ff ca 1a bd b3 cd 38 3d 3d 5f 88 3d 86 08 86 bf
       -0.03779125 0.045118045 0.0665879 -1.0471351
0000d0 f8 00 89 3d 51 f9 50 3d 96 23 0f bf d0 88 33 bc
       0.06689638 0.051019017 -0.55913675 -0.010957912
0000e0 4f 26 3c 3d 8b 2a 87 be 12 0b 91 bd 83 e4 aa 3d
       0.04593497 -0.26399645 -0.070821896 0.083443664
0000f0 a8 df 4e 3e 9f 3c 4e bd ad 9f 00 bf ae 48 be bd
       0.20202506 -0.05035078 -0.50243646 -0.09291206
000100 79 8e b4 3d d8 6d ab 3b 91 d5 40 be 4e 64 08 be
       0.08816237 0.0052316003 -0.18831469 -0.13319513
000110 42 18 24 be 09 b9 6e bf 1a 4a 55 be 8d f9 a9 3d
       -0.16024879 -0.9325109 -0.20829049 0.08299551
000120 d1 44 20 be 68 6e 73 3d d8 77 47 bd c0 ee 17 3d
       -0.15651251 0.059431463 -0.048698276 0.037092924
000130 02 8d de 3d a8 e8 a0 bf 92 23 02 3e 88 05 52 bd
       0.10866739 -1.2571001 0.12708881 -0.051274806
000140 27 94 03 3d e3 b1 b5 3d 47 65 51 3d 30 aa 8e be
       0.03212371 0.0887182 0.051121976 -0.27864218
000150 be 39 85 be 11 b5 45 bd f6 58 22 be be d3 a2 3d
       -0.26020616 -0.04826838 -0.15854248 0.07950543
000160 f7 d9 15 be 60 4d e7 be 49 67 97 bd e8 9d 06 be
       -0.14633928 -0.4517622 -0.07392747 -0.13146174
000170 a4 5b 80 bd df 06 1c be 5f e4 2f bf 59 06 09 bf
       -0.06267479 -0.15236996 -0.6870784 -0.5352531
000180 ee d5 93 3d f4 f3 7a be ab be 73 be b2 61 f7 3d
       0.07218538 -0.24507123 -0.23803203 0.12079181
000190 49 22 ad bd 1a 15 46 bf c1 f1 f1 be e5 60 35 bd
       -0.08453805 -0.7737595 -0.47254756 -0.04428186
0001a0 03 78 8d bb 27 85 d5 3d 50 51 78 3c 86 d5 53 bd
       -0.004317285 0.104257874 0.015156105 -0.051717304
0001b0 20 6d 91 bc 90 fb 23 c0 fb 9e 62 be f0 05 2a bc
       -0.01775223 -2.5622292 -0.22130959 -0.010377392
0001c0 04 34 1f bd 20 95 5d bd 13 1a 33 bd 66 f2 fa bd
       -0.038867965 -0.054097295 -0.04372604 -0.12253265
0001d0 9c d5 d8 3d 48 86 84 3d 8b 0f 33 bc 70 b1 4e 3d
       0.10587618 0.064709246 -0.010928999 0.050462186
0001e0 4f 55 5a 3e ea 84 15 c0 19 bc 0c 3e 29 c4 b6 3d
       0.21321605 -2.3362374 0.13743629 0.08924133
0001f0 95 0e 2a 3e 30 d3 15 3d 50 97 93 bf 37 f2 a4 3d
       0.16607125 0.036578357 -1.1530552 0.08054011
000200 9f 42 fd 3c 11 86 a1 3b 94 6e 3e bf 1c 24 78 bd
       0.030915556 0.004929312 -0.7438748 -0.06058131
000210 3e 0d 1a bc 16 b4 cd be eb 57 56 be 0d 20 06 3e
       -0.009402571 -0.40176457 -0.20931976 0.13098164
000220 36 4b 2b 3e 90 e2 a4 3d 55 cf 11 3e be ec 37 be
       0.1672791 0.08051026 0.14239247 -0.17961404
000230 48 7a d5 3c 98 b1 a3 be 04 fb 34 be f8 44 e0 bc
       0.026059285 -0.3197143 -0.1767388 -0.027376637
000240 4b ea 03 3e 55 7f 73 3c ed fa 5a bd 3e fb 4b be
       0.12882344 0.014861901 -0.053461958 -0.1992006
000250 31 c5 0b 3d 9b 40 a5 3d 1d ca 40 be 62 42 ed bd
       0.034123603 0.08068963 -0.188271 -0.11584927
000260 bf b0 a1 be e7 34 67 be 12 c8 db 3d ea fe ff bb
       -0.3158016 -0.22578774 0.1073152 -0.0078123705
000270 d3 32 98 be 75 15 ac bc 3f f2 55 be c3 21 e0 be
       -0.29726276 -0.021006325 -0.20893191 -0.43775758
000280 d4 4e 63 bc b9 c7 05 be af 8f 76 3c 72 6b f1 3d
       -0.013873775 -0.1306447 0.015048905 0.11788072
000290 64 6a c5 be 8f 79 38 bf 75 ac a7 bd db 64 24 3e
       -0.38557732 -0.72060484 -0.081871904 0.16054098
0002a0 4d da 03 bd 9e e0 51 be 93 54 c6 bd 99 e6 48 be
       -0.03219061 -0.20495841 -0.096841 -0.19619216
0002b0 fc 15 f9 bd c7 1c 9a be e3 26 56 be 46 17 26 be
       -0.12162396 -0.3010008 -0.20913272 -0.16219816
0002c0 d0 71 09 be 00 44 ae bd 22 a0 7f be 53 b0 3b be
       -0.13422322 -0.08509064 -0.2496343 -0.18328981
0002d0 13 83 97 3c 5d 24 97 bd e6 51 1b be 7e 23 a0 3d
       0.018495118 -0.073799826 -0.1516796 0.078192696
0002e0 4b bf e5 3c cd 88 98 be b0 86 cd bd 8d b1 0d 3c
       0.028045317 -0.2979187 -0.10035455 0.008648288
0002f0 13 a9 67 bd 04 7b b3 3c 13 f7 ef be 24 46 b2 be
       -0.056557726 0.021909244 -0.4686819 -0.34819138
000300 2d 17 29 be 26 bf c2 bd 6d fa 1a be 80 b3 fb bc
       -0.16512747 -0.09509115 -0.15134592 -0.03072524
000310 81 60 80 be 37 5e 62 bf 75 ea 33 bd 05 e3 87 bd
       -0.25073627 -0.8842501 -0.043924768 -0.066350974
000320 21 35 47 bd ab 52 c4 bc c6 8e d5 3d 4b 17 5d bd
       -0.048634652 -0.0239652 0.104276225 -0.053977292
000330 26 96 9a bd 5a 46 9f 3c 40 6f 1d 3e 04 79 8b 3d
       -0.0754817 0.019442726 0.1537447 0.06810191
000340 64 ef 9a 3d 7c 3b 1a bd 38 fc 8e bf ef 8e 9a be
       0.075651914 -0.037654385 -1.1170721 -0.30187175
000350 e7 d7 ba be 22 f2 2b be fe ab ce be 38 a9 8d bc
       -0.36492845 -0.16791585 -0.40365595 -0.017292604
000360 1e 56 ec bd 87 4f b8 3d 36 ef 66 bd 10 09 da 3d
       -0.11539863 0.08999544 -0.056380473 0.1064626
000370 e2 a7 8a be 08 40 2e 3d d2 c5 29 bf 07 42 e6 bd
       -0.2708121 0.042541534 -0.66317475 -0.112430625
000380 b9 59 27 be 24 01 8d be 83 90 c3 be 30 83 eb 3c
       -0.1634282 -0.27539933 -0.3819619 0.028749079
000390 70 3b 94 bd 40 3d 26 bf a7 07 a3 3d 31 78 5d 3d
       -0.07237899 -0.6493721 0.07960444 0.0540697
0003a0 9b 81 9a 3b eb fd 49 be 74 1b 06 bd 87 bd 2b be
       0.004715157 -0.19725768 -0.032741025 -0.16771518
0003b0 7b 89 2e be bb 41 20 bf f6 10 ba bd 3e ce 6e bd
       -0.17044632 -0.62600297 -0.09085266 -0.058302157
0003c0 7d e1 3a be 6a cc bb 3d 73 3f 96 bd 86 ce 61 be
       -0.1825008 0.09169848 -0.07336321 -0.22051439
0003d0 10 af d3 bc 1e df 99 bd 7e d5 c5 bd fb 00 fd bd
       -0.025840312 -0.07513259 -0.09659861 -0.12353703
0003e0 0f 43 c8 bc d1 c4 af be de 93 b3 3d 2f c3 c2 3b
       -0.024446039 -0.34329847 0.08768438 0.005943678
0003f0 a8 30 3a be db b3 38 bb 80 21 3d bf 56 ff 04 be
       -0.18182623 -0.0028183374 -0.7387924 -0.12988028

fc3.bias f4 [1291]
000000 5c 26 13 bd e3 c0 0d be 9b 90 1b be 31 dd 3b 3b
       -0.035925254 -0.13843112 -0.15191881 0.0028665776
000010 dc 65 ea bd 41 3a 85 bd 14 e8 03 be b0 d6 2d be
       -0.114452094 -0.06505252 -0.128815 -0.16976428
000020 23 b0 fc bc d6 cf 02 be 14 0d 1c be 54 e7 0e 3d
       -0.030845707 -0.12774596 -0.15239364 0.03488858
000030 ba c0 2d be bd 85 1e 3e 34 2a f9 3d 2f 9b 59 bd
       -0.1696805 0.15480705 0.12166253 -0.05312651
000040 c5 74 ee bd 05 fc 07 bd 6a e4 ab bd 76 f7 35 be
       -0.11643366 -0.03319933 -0.08393176 -0.1777018
000050 c0 88 dc 3d 3f 36 75 be 46 29 1d be d1 d2 56 be
       0.107682705 -0.23946474 -0.15347776 -0.20978858
000060 7d ea d0 3d 5b c0 2a be 86 df 3e 3c 60 05 10 3e
       0.10200975 -0.1667494 0.011649972 0.1406455
000070 73 5e 45 be e8 ab 48 be 12 c7 00 be 96 7f 82 be
       -0.19274311 -0.19596827 -0.1257594 -0.25487965
000080 d4 0b 89 be 2a 22 19 be 7a 0c 9c bd 01 7b 42 bd
       -0.26766837 -0.14954439 -0.07619567 -0.047480587
000090 a3 ee 8c bd 69 2a 0e be e0 d5 1c 3e 86 4c 73 bd
       -0.06881454 -0.13883366 0.15315962 -0.05939915
0000a0 08 a7 a2 3b 5c be c0 bd f2 6a f1 bc 77 5e 97 be
       0.0049637593 -0.09411308 -0.02946994 -0.29564258
0000b0 c4 62 4d be ec 17 26 3e d5 36 21 bd 8e ab 85 3d
       -0.20057207 0.16220063 -0.039358933 0.06526862
0000c0 d3 6e 29 be e8 d3 b7 be 21 19 57 bc a9 a3 c3 be
       -0.16546182 -0.3590386 -0.01312855 -0.382108
0000d0 c5 f3 f4 bd 2c 07 9b bd 16 b2 a0 bd 8c d1 d6 3d
       -0.11960558 -0.07569727 -0.07846467 0.10489187
0000e0 aa f6 4e be 71 2f 76 be 04 5b e2 3d 85 5b b4 bd
       -0.20211282 -0.24041535 0.11052516 -0.088065185
0000f0 b7 c5 2c bc 2d 74 45 3d a0 25 83 3c 54 e0 13 3e
       -0.010545186 0.048206497 0.016009152 0.14441043
000100 e9 8f 67 be b4 39 3f bc 4d 2b 5b be 98 0f c5 3d
       -0.22613491 -0.011671472 -0.21403237 0.09622115
000110 68 03 9e 3c 6c 8d 58 bd a2 11 18 3e fa ea b2 bd
       0.019288734 -0.052869245 0.14850476 -0.087362245
000120 dd b6 4b be a1 e2 65 3d 64 cd 2b 3e 8a 41 bd be
       -0.19893976 0.056124333 0.16777569 -0.36964065
000130 0d 32 d2 bc 41 9e a3 3d 63 9e d2 be 8d 9a d3 bd
       -0.025658632 0.07989169 -0.41136464 -0.103322126
000140 ec b8 0c be 33 0d 85 be 6f 61 fd bc a6 03 34 be
       -0.13742417 -0.25986633 -0.030930249 -0.17579517
000150 82 a0 2e be eb 00 d8 be de fb 6c 3d 54 52 7b 3d
       -0.17053416 -0.421882 0.057857387 0.06135781
000160 37 25 10 be a3 57 44 3d 99 38 0d be 4a 20 a7 3d
       -0.14076696 0.04793514 -0.13791122 0.081604555
000170 41 65 e6 bd 5b 17 75 3c ab 13 cc 3d a2 93 b4 3c
       -0.112497814 0.014959182 0.09964689 0.022043053
000180 b5 b3 fc bd 75 71 06 bd 63 cc 0b 3e ad e4 e2 3c
       -0.12338964 -0.032823045 0.13652186 0.027696932
000190 84 69 df be 51 f3 da bd 95 ae 82 3d 52 1a 13 be
       -0.4363519 -0.1069094 0.06380955 -0.14365509
0001a0 e1 a7 1f be 88 c3 85 be 4b ef cc be 9e fe d4 3c
       -0.15591384 -0.2612574 -0.40026316 0.026000317
0001b0 47 2c 8b bc 10 c4 d2 bc 18 54 97 3b 00 a3 48 be
       -0.016988887 -0.025728256 0.004618179 -0.1959343
0001c0 ec 40 2c be fb bd 88 be 01 13 e8 3c 2e 47 b5 bb
       -0.1682164 -0.26707444 0.028329374 -0.005532167
0001d0 1e f8 dc bd 8a 03 e7 bd 2d 3c f5 3c 18 03 5e be
       -0.10789512 -0.11279972 0.02993592 -0.21680868
0001e0 41 c2 af bd b1 84 6f be b4 95 0b be 30 f7 cf be
       -0.08581973 -0.23390462 -0.13631326 -0.40618277
0001f0 e6 e6 cd bd f3 18 cd 3d 6e a2 2e 3d 0d 64 05 bd
       -0.10053806 0.10014524 0.042635374 -0.03256612
000200 22 18 04 3d c7 0b 58 be ed e4 3f bd 16 ac 55 be
       0.032249577 -0.21098243 -0.04684918 -0.20866427
000210 0e 5d 42 3e 83 98 27 be b5 79 32 bd 0e 54 87 3d
       0.1898081 -0.16366772 -0.0435731 0.06607829
000220 05 f6 76 3d ea 47 61 3d f9 1c 1b bd f3 41 b1 bd
       0.060293216 0.055000223 -0.037869427 -0.08655157
000230 27 a1 c0 be 9f 68 93 3d 25 48 82 3d 5f e0 e8 bc
       -0.3762295 0.07197689 0.06361417 -0.028427301
000240 f4 be eb bd 11 f0 08 3e cd 49 30 be 6a 5f 2d be
       -0.11511031 0.13372828 -0.17215653 -0.16930929
000250 61 6a 03 bd 6a 6a 85 bd c2 60 cd bd 5b 68 cb bd
       -0.032083873 -0.065144375 -0.10028221 -0.099320136
000260 23 34 af bd a1 60 ae bd 26 8d 21 3c 35 06 2a be
       -0.08554866 -0.08514524 0.009860313 -0.1660393
000270 d4 95 19 3e 38 b2 29 bc c7 c0 59 be 37 da f1 3c
       0.14998561 -0.010357432 -0.21264945 0.029522998
000280 c6 e1 71 bc c0 05 5f bd 6a 5a 90 3d 0b d3 82 bd
       -0.014763301 -0.054448843 0.07048495 -0.063879095
000290 03 b8 9d bb 12 5e c1 be fa 0d bb 3d 6b 83 a3 3d
       -0.0048131957 -0.37767082 0.09133525 0.0798405
0002a0 91 7b 9a 3d 84 a3 ef 3b 2a 43 ea bd 45 b6 00 3e
       0.075431 0.0073131938 -0.11438592 0.1256953
0002b0 c2 5f d0 be 7a dd 74 3d 57 d0 9c 3d f1 40 b2 3d
       -0.40698057 0.05978153 0.07656925 0.08703793
0002c0 fa 5c 86 be a0 ff 2e be db 7c 09 3e 54 f2 c5 3c
       -0.2624281 -0.170897 0.13426535 0.024163403
0002d0 1f 96 a2 bd 27 07 bb bc af e1 99 3d 5b 9b 02 3e
       -0.079387896 -0.022830559 0.07513749 0.12754576
0002e0 19 06 cd bd c2 68 29 bd 61 d8 4b be 87 97 88 3d
       -0.10010929 -0.04135967 -0.19906761 0.066695265
0002f0 8e e3 7c 3d 13 43 aa bd cc 97 b2 bc b9 d9 17 be
       0.06174045 -0.08313575 -0.021800898 -0.14829148
000300 38 87 23 bd b5 8c 3d 3c d4 a2 af be c7 07 17 be
       -0.039923877 0.011569192 -0.34303916 -0.1474906
000310 41 0a ba bb 55 e0 43 bd 71 27 d0 be b4 ce 64 be
       -0.005677492 -0.04782136 -0.4065509 -0.22344476
000320 f5 32 8b be b6 cb a9 be 66 b9 52 be eb 54 81 bd
       -0.27187315 -0.33163232 -0.20578536 -0.06315025
000330 0d 8c d7 3c 41 9c 65 be d2 c4 31 be 8d 83 1b 3e
       0.026311899 -0.22422887 -0.17360237 0.15186901
000340 22 85 8a be f3 f8 93 be ad c2 c3 be a6 08 44 be
       -0.27054697 -0.2890087 -0.38234463 -0.19143924
000350 cf 1c d5 3d 76 e1 ce bd 99 40 17 be 56 db 84 bd
       0.104058854 -0.10101597 -0.14770736 -0.064871475
000360 c3 17 8e bd 6b b8 3d bd 8f 58 a9 be d5 8d 61 be
       -0.06938126 -0.046318453 -0.33075377 -0.22026761
000370 21 da 9e be 63 08 b0 be d5 a5 7c be d8 57 96 bc
       -0.31025794 -0.343814 -0.24672635 -0.018352434
000380 bf 14 2f 3d f6 a5 a1 3d a7 7c 02 3e 5b 37 fe 3d
       0.042744394 0.07892983 0.12742864 0.12412902
000390 7a b7 9a 3b 57 5a f2 3c e1 b6 33 be d9 41 48 be
       0.004721579 0.029584093 -0.17550232 -0.19556369
0003a0 b2 9f 0e 3e 9b 5f ab be f8 7d 97 bd dc 90 55 be
       0.13928106 -0.3347138 -0.073970735 -0.2085604
0003b0 2c 3a 85 bd f5 57 5f be 0b 55 f0 3d 69 a2 33 be
       -0.06505236 -0.21810897 0.11734971 -0.17542423
0003c0 c5 e6 37 be 86 31 1e 3d 1b 7a ee bd dc 0e 47 be
       -0.17959125 0.038621448 -0.116443835 -0.19439262
0003d0 94 74 b1 be 5f 29 02 3e 2b 3d 1a be 06 06 c3 bd
       -0.34659255 0.12711094 -0.15062396 -0.09522633
0003e0 a6 c2 0b be 77 3d 09 be 4c 53 f1 bc a8 58 44 be
       -0.13648471 -0.13402353 -0.029458664 -0.19174445
0003f0 3a d8 1f 3e 05 a0 30 be 1c 30 85 be 11 3f de bc
       0.15609828 -0.17248543 -0.26013267 -0.027129682
