src/server/flask-backend/color_classifier.pth (torch, 182370 bytes, 6 tensors)

fc1.weight f4 [64, 3]
0	0xbf8500d1	-1.0390874
1	0xbf1093f6	-0.5647577
2	0x3fcedb03	1.6160587
3	0xbecbe839	-0.3982561
4	0x3fdae606	1.7101448
5	0xbf51b279	-0.8191295
6	0x3f58a566	0.8462738
7	0x3e12959a	0.14314881
8	0x3fc89962	1.5671809
9	0x3f1f4c7e	0.6222609
10	0xbfc4b747	-1.5368432
11	0xbc10dc9a	-0.008841658
12	0x3f8250b2	1.0180876
13	0x3ff245dd	1.892757
14	0xbe90c9f6	-0.28279084
15	0xbf03efeb	-0.5153796
16	0x3e17d484	0.14827162
17	0xbecb7d6a	-0.3974412
18	0x3d99d8ea	0.07512076
19	0x3fb8992d	1.4421746
20	0xbf9d6c28	-1.2298632
21	0x3f7f46af	0.9971723
22	0x3fc61302	1.5474551
23	0x3f93738f	1.1519641
24	0x3e88c6f8	0.267143
25	0x3f3ce296	0.7378324
26	0xbf176db7	-0.59151787
27	0x3c9f6379	0.019456612
28	0x3e61f7bf	0.22067164
29	0x3e3d494a	0.18484989
30	0xbdcab6fc	-0.09898183
31	0xbee93175	-0.45545545
32	0xbeda923e	-0.426897
33	0xbebe4f9c	-0.37170112
34	0x3ef20248	0.47267365
35	0xbf13c4a3	-0.5772192
36	0x3fafa48a	1.3722088
37	0x3fb01999	1.3757812
38	0x3f9107b5	1.1330477
39	0x3fe23cba	1.7674782
40	0xbf9a4ca7	-1.2054642
41	0x3ef1a08f	0.4719281
42	0xbe9b986f	-0.30389735
43	0x3fef30fe	1.8686826
44	0xbf3238ec	-0.69618106
45	0x3eeebaf7	0.46627018
46	0x3ebe94bb	0.37222847
47	0xbfc222b6	-1.5166843
48	0x3fd8a80f	1.6926287
49	0xbee8ee8c	-0.45494497
50	0xbf70fb01	-0.94133
51	0x3fc532ff	1.5406188
52	0x3fc9c275	1.5762469
53	0xbf8a54a2	-1.0807078
54	0xbefebb8a	-0.49752456
55	0xbe6f7ae0	-0.23386717
56	0xbed5dc9c	-0.41769874
57	0xbe8c5d36	-0.27414864
58	0xbf9efada	-1.2420304
59	0x3f9a0a3b	1.2034372
60	0xbf4d368a	-0.80161345
61	0xbd3a0dca	-0.045423307
62	0x3fd30cc9	1.6488277
63	0x3f97d1a6	1.1860855
64	0xbe3f10c4	-0.1865874
65	0x3fc8e3f0	1.5694561
66	0xbf5832ea	-0.8445269
67	0x3f84faa9	1.0388995
68	0x3fd46f68	1.6596498
69	0x3ec5a55e	0.38602728
70	0xbf0bf810	-0.5467539
71	0xbe88f38d	-0.26748314
72	0xbd9db518	-0.077005565
73	0xbf89b7d2	-1.0759223
74	0xbf0077b8	-0.50182676
75	0xbf90c92d	-1.1311394
76	0x3f61f1a5	0.88259345
77	0xbeba7014	-0.36413634
78	0x3fe9225d	1.8213612
79	0xbdc5a6c0	-0.09650946
80	0x3f07b279	0.530067
81	0xbf162e8b	-0.5866477
82	0x3f640c38	0.89081144
83	0x40045ba5	2.0680935
84	0xbf66b3de	-0.90118206
85	0x3fb884aa	1.4415486
86	0x3fc5de15	1.5458399
87	0x3ea45d36	0.32102364
88	0xbfce4d61	-1.6117364
89	0x3f10c442	0.56549466
90	0xbe986ab8	-0.2976892
91	0xbe44111e	-0.19147155
92	0xbe369344	-0.17829615
93	0x3f84fd02	1.0389712
94	0x3fa49c19	1.2860137
95	0x3f805851	1.0026952
96	0x3de698b0	0.112595916
97	0x3fe4f562	1.7887385
98	0x3f997b34	1.1990724
99	0x3da13c18	0.0787279
100	0xbfb5108a	-1.4145672
101	0x3f93cd46	1.154702
102	0x3fe7aa35	1.8098818
103	0xbe182d81	-0.14861108
104	0x3efeeb61	0.49788955
105	0x3fe53336	1.7906253
106	0x3d7c5cba	0.06161187
107	0x3f2115ae	0.62923706
108	0xbf58ca76	-0.8468393
109	0x3fc8fbe0	1.5701866
110	0xbf3be239	-0.73392063
111	0x3e331395	0.17487939
112	0x4003d05c	2.0595922
113	0x3dbc210d	0.091859914
114	0x3fc3fabc	1.5310893
115	0x3f597471	0.849433
116	0x3f02d0e8	0.51100016
117	0x3fb1f96e	1.3904245
118	0x3fea3a5b	1.8299059
119	0xbc7b3c77	-0.01533424
120	0xbf43df98	-0.7651305
121	0xbf2dc915	-0.6788495
122	0x3fd98968	1.6995058
123	0x3fa224b5	1.2667452
124	0x3fb82b6f	1.4388255
125	0x3dbced98	0.09225005
126	0xbeeced2d	-0.462747
127	0xbf51ee1a	-0.8200394
128	0x3fd1c64d	1.6388642
129	0x3f01043d	0.5039709
130	0xbc5ea23f	-0.013588487
131	0x3ff81293	1.9380668
132	0x3ef72017	0.4826667
133	0xbfc433c3	-1.5328296
134	0x3f44d789	0.7689138
135	0xbe9478d3	-0.28998432
136	0xbe15d82a	-0.14633241
137	0x3d902d00	0.07039833
138	0x3fb98526	1.4493759
139	0x3bf45cb9	0.0074573425
140	0xbf9aae80	-1.2084503
141	0x3dce3d9b	0.10070344
142	0x3fc49443	1.5357746
143	0x3fdf2468	1.7432985
144	0x3e151184	0.14557463
145	0xbd898f98	-0.067168415
146	0x3e8cb360	0.27480602
147	0x3e1093c4	0.14118868
148	0xbe317fd8	-0.17333925
149	0xbec2fbd2	-0.3808275
150	0x3e8c2a75	0.27376142
151	0x3fa32e0c	1.2748427
152	0x3d0d598a	0.03450922
153	0x3f80d9f3	1.0066513
154	0x3f916c9f	1.1361274
155	0xbfc865a2	-1.5656016
156	0x3f933c3f	1.1502761
157	0xbfab3d69	-1.3378116
158	0x3efe381c	0.49652183
159	0x3e2a8fa0	0.16656351
160	0xbe80f2de	-0.25185293
161	0xbebed598	-0.37272334
162	0xbf182d8a	-0.5944449
163	0x3fe77aaa	1.8084309
164	0x3edd2fe9	0.43200615
165	0x3f3da796	0.7408384
166	0x3f0707da	0.52746356
167	0xbfcedfb2	-1.6162016
168	0x3f09ae85	0.5378192
169	0xbe9795e9	-0.2960656
170	0xbe102821	-0.14077808
171	0xbdda1a9c	-0.106496066
172	0xbeb3d550	-0.35123682
173	0xbd9931f0	-0.07480228
174	0x3f74fd52	0.95699036
175	0xbd946b61	-0.072470434
176	0x3ff1bf0c	1.8886428
177	0x3e1fb315	0.15595658
178	0xbf2b6250	-0.6694689
179	0x3fcb4ef3	1.5883468
180	0xbf3b5313	-0.73173636
181	0x3f9a76f0	1.2067547
182	0x3fcc3523	1.5953716
183	0xbfb731a9	-1.431203
184	0x3f1de11f	0.6167163
185	0x3e8d79bf	0.27631947
186	0xbfa37fb1	-1.2773343
187	0xbf21a917	-0.63148636
188	0x3f33faed	0.7030476
189	0x3d0a2620	0.033727765
190	0xbee20536	-0.441446
191	0x3e8abc6c	0.2709688

fc1.bias f4 [64]
0	0x3f8517d1	1.0397893
1	0x3f127a03	0.57217425
2	0xbedfaa17	-0.43684456
3	0x3f9ee175	1.2412554
4	0xbe240eec	-0.16021317
5	0xbe3b75c0	-0.18306637
6	0x3f94e713	1.1633018
7	0xbf134835	-0.57532054
8	0x3fb72111	1.4306966
9	0xbedc73e3	-0.43057165
10	0xb9d50000	-0.00040626526
11	0xbf0bdf14	-0.54637265
12	0x3f0caba2	0.5494939
13	0x3f172c4f	0.59051985
14	0x3f0b886d	0.54505044
15	0x3fa88331	1.3165036
16	0x3f83f360	1.0308647
17	0x3f139028	0.5764184
18	0xbd7ffd70	-0.062497556
19	0x3f9535fa	1.1657097
20	0x3f56ac0e	0.83856285
21	0x3e82db21	0.25557807
22	0x3e9483b6	0.29006737
23	0xbee1468e	-0.4399914
24	0x3fd37b88	1.6522074
25	0x3f9df9c4	1.2341847
26	0x3db60b56	0.08888881
27	0x3eb60d78	0.3555715
28	0x3e99744a	0.29971534
29	0x3fa6e96f	1.3039988
30	0xbe11ec3e	-0.14250275
31	0xbf146c44	-0.579777
32	0xbdd3ef6b	-0.103484
33	0x3fa3746b	1.2769903
34	0xbd43fa88	-0.047846347
35	0x3ea0711a	0.3133629
36	0x3f9a38d8	1.2048597
37	0xbd9939a0	-0.07481694
38	0xbea8ac55	-0.3294398
39	0x3f539401	0.8264771
40	0x3f952607	1.165223
41	0xbeb16b4d	-0.34652176
42	0x3f7e6310	0.9936991
43	0xbe596952	-0.21231583
44	0x3f8efdf3	1.1171249
45	0xbf033204	-0.5124819
46	0x3f7d82ac	0.99027514
47	0xbda28a2e	-0.07936512
48	0xbf12b926	-0.57313764
49	0xbf01f826	-0.5076927
50	0x3fb328bf	1.399681
51	0x3fa457cc	1.2839293
52	0x3f8057bc	1.0026774
53	0xbf0c3925	-0.54774696
54	0x3eeedc48	0.46652436
55	0x3f9d14c3	1.2271961
56	0xbf0b15f6	-0.54330385
57	0xbdee8718	-0.11646861
58	0xbee0a7a4	-0.438779
59	0x3eee2154	0.46509802
60	0x3ecf011d	0.40430537
61	0x3fadb0c1	1.3569566
62	0x3fd1960b	1.6373914
63	0xbebb36de	-0.36565298

fc2.weight f4 [32, 64]
0	0xbd9488d1	-0.07252658
1	0x3dcf9f5e	0.10137819
2	0xbd138772	-0.036017843
3	0x3dd3d350	0.10343039
4	0xbcc3a348	-0.02388157
5	0x3df38292	0.11890139
6	0xbd55a221	-0.05215657
7	0x3dc77180	0.09738445
8	0x3cc3e426	0.0239125
9	0x3de9ba42	0.11412479
10	0xbdf3a450	-0.118965745
11	0x3dfdb6b6	0.12388365
12	0xbd80cc31	-0.062889464
13	0xbdeee1b2	-0.11664142
14	0xba029c93	-0.0004982438
15	0xbdf9135d	-0.121618964
16	0x3dc1b5fe	0.094585404
17	0xbde9fe2f	-0.11425435
18	0x3cf2a640	0.02962029
19	0xbc059e6e	-0.008155448
20	0x3de55cec	0.11199364
21	0x3d98b769	0.07456858
22	0x3d0490b2	0.032364555
23	0x3d05e284	0.032686725
24	0x3c126b6c	0.008936744
25	0xbd536ea8	-0.051619202
26	0xbd2255ac	-0.039632484
27	0xbcb13936	-0.021633726
28	0x3d16c9df	0.036813613
29	0xbd2776e8	-0.040884882
30	0x3d8ef63a	0.06980558
31	0x3d23feb2	0.04003782
32	0xbda46ee0	-0.0802896
33	0x3db7bba4	0.089713365
34	0x3dcb5c7d	0.0992975
35	0xbdbadacd	-0.09123764
36	0x3b8dc42b	0.0043263636
37	0xbd747fc0	-0.059692144
38	0x3d2dc5d0	0.042424977
39	0x3dba9a73	0.0911149
40	0x3c241402	0.010014536
41	0xbde71f48	-0.11285263
42	0xbbef5144	-0.007303389
43	0x3c8dd848	0.017315045
44	0xbcabff5d	-0.02099579
45	0x3dcf7752	0.101301804
46	0xbd85894d	-0.06520329
47	0xbd851ecd	-0.065000154
48	0x3ccc9cf8	0.024977192
49	0xbca98420	-0.020692885
50	0xbd923700	-0.07139397
51	0x3ddef263	0.10886075
52	0x3dca502e	0.09878574
53	0xbd2f447c	-0.04278992
54	0xbde8e03d	-0.11370895
55	0xbd4ff745	-0.050772924
56	0x3d4d06f1	0.050055448
57	0xbdf130ec	-0.11776909
58	0xbde8b3ac	-0.11362395
59	0xbd471faa	-0.04861418
60	0xbd9bf74e	-0.07615529
61	0xbbec1b20	-0.007205382
62	0x3c5fe13a	0.013664538
63	0x3d09d914	0.033654287
64	0x3df722e8	0.12067205
65	0xbd8cc3fa	-0.06873317
66	0x3c816b38	0.015798196
67	0x3daaa2e2	0.08331849
68	0xbcbcf788	-0.02306725
69	0x3c37f910	0.011228815
70	0xbd8e6062	-0.06951977
71	0xbd409bcc	-0.04702358
72	0x3d877528	0.06614143
73	0xbcf988c0	-0.030460715
74	0x3de72fca	0.11288412
75	0xbd4447e8	-0.047920138
76	0xbc5267a0	-0.012842089
77	0x3db1ef6c	0.08688244
78	0x3d6cd1e8	0.05781737
79	0xbd243a94	-0.040094927
80	0xbc7bb470	-0.015362844
81	0xbd8073e2	-0.06272103
82	0xbade6b80	-0.0016969293
83	0xbdd8061e	-0.10548042
84	0xbc5cfcf0	-0.013488039
85	0xbd64d728	-0.05586925
86	0x3dd2a1f6	0.10284798
87	0xbdda0afe	-0.10646628
88	0xbce260d0	-0.027634054
89	0xbdba8658	-0.09107655
90	0xbd1ee2a8	-0.038790375
91	0xbdefdcb6	-0.11712019
92	0x3d3c7808	0.04601291
93	0xbd26f720	-0.04076302
94	0x3c689990	0.014196768
95	0x3db3632c	0.0875915
96	0xbdbdf33a	-0.092749074
97	0xbb8d2540	-0.004307419
98	0xbbf1d540	-0.0073801577
99	0xbc81e230	-0.015854925
100	0x3d86cb1a	0.06581707
101	0xbd93d1fa	-0.07217784
102	0xbd93a40a	-0.07209022
103	0xbd911bbe	-0.070853695
104	0xbdf0c19e	-0.117556795
105	0x3b3af840	0.0028529316
106	0x3d746224	0.059663907
107	0xbde05c62	-0.109551206
108	0x3d826f94	0.06368938
109	0xbd9e58c8	-0.077317774
110	0x3df43ae4	0.11925295
111	0xbc00bdb0	-0.007857725
112	0xbbe804c0	-0.0070806444
113	0x3c721430	0.014775321
114	0x3d973e50	0.07384932
115	0xbdf4adb4	-0.11947194
116	0xbbeec280	-0.00728637
117	0xbd8e1d6a	-0.06939204
118	0xbca4b740	-0.020106912
119	0x3d1f9a00	0.038965225
120	0x3c5d7b50	0.0135181695
121	0x3dedf244	0.11618474
122	0x3d6529dc	0.055948123
123	0xbdc26d28	-0.09493476
124	0xbd8fa460	-0.07013774
125	0xbcdac110	-0.026703387
126	0xbd160018	-0.036621183
127	0x3d8bac1c	0.06819937
128	0x3f22ff61	0.6367093
129	0x3ea8de6f	0.32982203
130	0x3e2655c1	0.1624365
131	0xbe435aef	-0.19077657
132	0xbbd1f407	-0.006407264
133	0x3d68d92c	0.056847736
134	0x3d9b0cc5	0.07570795
135	0x3c88b44f	0.01668754
136	0x3e437c8b	0.19090478
137	0x3d60e15f	0.05490243
138	0x3dcfca68	0.10146028
139	0xbd56e3e0	-0.052463412
140	0xbbdb97a3	-0.006701426
141	0xbe328897	-0.17434917
142	0x3e593a12	0.21213558
143	0xbe5d3013	-0.2160037
144	0xbf007de4	-0.50192094
145	0xbe0c1984	-0.13681608
146	0x3db23818	0.08702105
147	0x3eb0cf82	0.34533316
148	0x3f02bdce	0.5107087
149	0xbd520e8b	-0.0512834
150	0x3ef50a41	0.47859386
151	0xbd268348	-0.040652543
152	0xbc29c1e5	-0.010361169
153	0x3f262774	0.6490395
154	0xbe71a725	-0.23598917
155	0x3f29974b	0.6624648
156	0x3ea42b16	0.32064122
157	0x3dd527a8	0.104079545
158	0xbd840fac	-0.06448302
159	0xbc8f6a88	-0.017506853
160	0x3eba8aba	0.36433965
161	0x3e76b5ca	0.24092785
162	0xbe70d15c	-0.23517364
163	0x3d5049c6	0.050851606
164	0x3ea6bd89	0.3256648
165	0xbc57e58a	-0.013177285
166	0xbddfa6c4	-0.1092048
167	0x3dc63572	0.09678163
168	0x3efa5855	0.48895517
169	0xbdaa5398	-0.083167255
170	0x3eefcea6	0.46837348
171	0x3e8d5b5b	0.2760876
172	0xbbc780d6	-0.0060883565
173	0x3dfec932	0.12440719
174	0xbee9a330	-0.45632315
175	0x3ec0fe65	0.37694088
176	0x3db0b468	0.0862816
177	0xbdb0d8c8	-0.08635098
178	0x3e2da4e4	0.16957432
179	0xbcb13022	-0.021629397
180	0x3d8654f5	0.06559173
181	0xbdd4bf32	-0.1038803
182	0x3eb010d1	0.3438783
183	0xbeb720c2	-0.3576718
184	0xbd9e3dc6	-0.07726626
185	0x3c8911f0	0.016732186
186	0x3e1b1ed0	0.15148473
187	0x3ebd5a68	0.36983037
188	0x3ef32f2f	0.47496936
189	0x3f4e7f49	0.8066297
190	0x3f056506	0.52107275
191	0xbc1a1f80	-0.009406924
192	0x35080000	5.066395e-07
193	0x3d092f64	0.03349246
194	0x3dfd73dc	0.12375614
195	0xbda9cab0	-0.08290613
196	0xbc1e5ab0	-0.009665176
197	0x3dfa5d98	0.12224883
198	0xbdd1d6d4	-0.10246053
199	0xbd266098	-0.040619463
200	0xbd3ac70c	-0.045599982
201	0x3db84c2c	0.08998904
202	0xbd11abb4	-0.03556414
203	0xbde4dbe8	-0.11174756
204	0xbd99ba44	-0.075062305
205	0xbd86976c	-0.0657185
206	0xbd2abf6c	-0.04168646
207	0x3d97deec	0.07415566
208	0xbd9d27e2	-0.07673623
209	0xbddbd946	-0.10734801
210	0xbc943a30	-0.018094152
211	0xbc3e6390	-0.011620417
212	0x3ca34228	0.019929007
213	0xbd661e60	-0.05618131
214	0x3ddc47e0	0.107558966
215	0x3d77a0ec	0.0604562
216	0xbcd0aad8	-0.02547209
217	0xbdfe74ec	-0.12424645
218	0xbcb79770	-0.022411078
219	0x3d14d218	0.036333174
220	0x3d92f470	0.07175529
221	0xbdcf1b4a	-0.10112627
222	0xbd14fa90	-0.036371768
223	0xbdd73f7c	-0.105101556
224	0x3d13db14	0.0360976
225	0x3decd8b0	0.11564767
226	0xbde73c5e	-0.11290811
227	0x3c4b9da0	0.012427717
228	0x3cd27460	0.025690258
229	0x3de2cd1c	0.11074278
230	0x3d8b4c4e	0.06801663
231	0xbdbfee1e	-0.09371589
232	0xbdba39a6	-0.09093027
233	0xbcb0fe40	-0.02160561
234	0x3dd2e5fe	0.10297774
235	0xbd58edc0	-0.05296111
236	0x3df513d4	0.119666725
237	0xbdfc6cd8	-0.12325448
238	0x3c948198	0.018128201
239	0xbd670020	-0.056396604
240	0xbdec8e72	-0.11550607
241	0xbdc92878	-0.09822172
242	0x3d3265d0	0.043554127
243	0xbd692884	-0.056923404
244	0xbdfe8e30	-0.12429464
245	0xbdd7b3de	-0.10532354
246	0xbd88a826	-0.06672697
247	0xbd46347c	-0.048389897
248	0xbdbb9fce	-0.0916134
249	0x3df3d4e2	0.119058385
250	0x3cf469f8	0.029835686
251	0xbc86ae60	-0.01644057
252	0xbdafd934	-0.0858635
253	0xbd8e680c	-0.06953439
254	0x3d826714	0.06367317
255	0x3dd8a3e8	0.10578138

fc2.bias f4 [32]
0	0xbdf2a850	-0.11848509
1	0x3cc7a110	0.024368793
2	0x3e205afc	0.15659708
3	0xbc16c7c0	-0.009202898
4	0xbd9bfe2d	-0.076168396
5	0x3d313268	0.04326096
6	0xbb0e1490	-0.0021679737
7	0x3daf3511	0.085550435
8	0x3e57281f	0.21011399
9	0xbdbaf88d	-0.091294385
10	0x3f12427e	0.5713271
11	0x3edd1d1d	0.43186274
12	0x3de4fed0	0.11181414
13	0x3e826aa2	0.2547198
14	0x3cf82f98	0.030296132
15	0x3e09a5c6	0.13442144
16	0x3ea93ea3	0.330556
17	0x3d8a9d72	0.067683116
18	0x3eac0d46	0.33603877
19	0xbdd4c9cb	-0.103900515
20	0xbe02079f	-0.1269822
21	0xbd1b266a	-0.03787843
22	0xbe05eb3c	-0.13078016
23	0x3dd75ed7	0.10516136
24	0x3ea866ff	0.3289108
25	0xbd34455c	-0.04401146
26	0xbca96ebd	-0.020682687
27	0x3d9787c0	0.07398939
28	0xbd96a7d5	-0.0735623
29	0xbdafe964	-0.085894376
30	0x3dc57464	0.096413404
31	0x3e58650a	0.21132293

fc3.weight f4 [1291, 32]
0	0xbb39b9e5	-0.0028339562
1	0xbd7d7dba	-0.06188748
2	0x3da8b863	0.08238294
3	0xbd4d51fc	-0.050127015
4	0x3e149d4a	0.14513126
5	0x3e0e6a69	0.1390778
6	0xbebce9a1	-0.36896995
7	0xbe0e150c	-0.13875216
8	0xc00fa055	-2.244161
9	0xbe0fd71e	-0.14046904
10	0xbeeef86f	-0.46673915
11	0xbe81fa1f	-0.2538614
12	0xbf9168a8	-1.1360064
13	0xbdd4fe88	-0.104001105
14	0x3ae5566c	0.0017497069
15	0xbe63b2d8	-0.22236192
16	0xbe1b1865	-0.15146025
17	0xbbea22ff	-0.007145285
18	0x3cd07618	0.025446936
19	0x3df93298	0.12167853
20	0xbcc355ce	-0.023844626
21	0x3dbb4e2f	0.09145772
22	0xbdc7603d	-0.09735153
23	0xbe41b1d0	-0.18915486
24	0xbda95e24	-0.08269909
25	0x3d9dff80	0.077147484
26	0x3e242213	0.16028623
27	0xbe927f50	-0.28612757
28	0x3c3ceb84	0.011530761
29	0x3e21c46f	0.1579759
30	0xbdd1aff1	-0.10238636
31	0x3b797fd9	0.0038070588
32	0x3cee0237	0.02905379
33	0xbe24143a	-0.16023341
34	0xbe6d3218	-0.2316364
35	0x3c1ae3e0	0.009453744
36	0xbe395a3c	-0.18100828
37	0xbdfab9e4	-0.12242487
38	0xbddf35bb	-0.1089892
39	0xbddcecd3	-0.10787358
40	0xbd66f3fa	-0.056385018
41	0x3cbc2905	0.022968778
42	0xbeb4e686	-0.35332125
43	0xbbf8a086	-0.0075874953
44	0x39f3809a	0.00046444387
45	0xbe41d468	-0.18928683
46	0x3d8374c4	0.06418756
47	0xbee455cf	-0.44596717
48	0xbf2a0cd0	-0.664258
49	0x3cb14112	0.021637473
50	0xbd2fe0ab	-0.04293887
51	0x3e056b09	0.13029112
52	0x3dd5eae8	0.104451954
53	0xbdae0458	-0.08496922
54	0x3e151deb	0.14562194
55	0xbe304486	-0.1721364
56	0xbeaa5d4a	-0.332743
57	0xbfa3fd75	-1.2811724
58	0x3d3f666c	0.046728536
59	0xbe5b9d5d	-0.21446748
60	0xbe7f5fc5	-0.24938877
61	0x3e261963	0.16220622
62	0xbcc477df	-0.02398294
63	0xc007a8ff	-2.1196897
64	0xbe27b7d4	-0.16378719
65	0x3d8cb35c	0.068701476
66	0x3e03f13c	0.12884992
67	0x3df3ce32	0.11904563
68	0x3dcbda67	0.09953766
69	0xbd41eb60	-0.04734361
70	0xbc4a617a	-0.012352342
71	0xbe30fd39	-0.17284097
72	0xbe8343a2	-0.25637537
73	0xbcca8cec	-0.0247254
74	0xbfbc467b	-1.4709009
75	0xbec878ca	-0.39154655
76	0xbe87bcae	-0.2651114
77	0xbf24a60b	-0.6431586
78	0xbe0026a9	-0.12514748
79	0x3c217bef	0.009856208
80	0xbe2f6fd8	-0.17132509
81	0xbdc4edf5	-0.09615699
82	0xbe212650	-0.15737271
83	0xbe0db354	-0.1383794
84	0x3d84d2cd	0.064855196
85	0xbe1ffeb6	-0.15624508
86	0x3cd167e6	0.025562238
87	0x3d61b746	0.055106424
88	0xbe42e35e	-0.19032046
89	0x3dfca201	0.12335587
90	0xbd7009e8	-0.058603197
91	0xbda7cad0	-0.0819298
92	0xbdf4c734	-0.119520575
93	0xbd80898c	-0.06276235
94	0xbc0f824b	-0.008759092
95	0xbea02113	-0.31275234
96	0xbdbcbf47	-0.09216171
97	0x3e0ea8fb	0.13931648
98	0x3e16464d	0.14675255
99	0x3d4507ac	0.04810302
100	0xbdddf1e7	-0.10837155
101	0x3dac9cca	0.08428343
102	0x3d5d5a0f	0.054040965
103	0xbe266765	-0.1625038
104	0x3bac7fd5	0.005264262
105	0x3dc7c747	0.09754806
106	0xc03ae6a0	-2.9203262
107	0xbe6a9bc1	-0.22910978
108	0xbe8ca09c	-0.27466285
109	0xbf81fc3a	-1.0155098
110	0xbe248e9b	-0.16070025
111	0xbcd5dcd5	-0.026106277
112	0xbf02e8fc	-0.51136756
113	0x3dcdebf9	0.10054774
114	0xbfd988e8	-1.6994905
115	0xbe56afdf	-0.20965527
116	0x3d1bfa1d	0.038080323
117	0xbca38b18	-0.019963786
118	0xbe32532c	-0.1741454
119	0xbcabd6e7	-0.020976497
120	0xbe9bbab7	-0.3041589
121	0xbe0094ee	-0.12556812
122	0x3d841f49	0.0645128
123	0xbe5c4fc7	-0.21514808
124	0x3e015d48	0.1263324
125	0x3d880648	0.06641823
126	0xbe15978c	-0.14608592
127	0xbf10b234	-0.56521916
128	0x3d236b89	0.039897475
129	0xbd85bdb6	-0.06530325
130	0xbcf950bc	-0.030434005
131	0xbe0cce14	-0.13750488
132	0xbe063cd6	-0.13109145
133	0xbd7af58e	-0.061269335
134	0xbe5265ff	-0.20546721
135	0xbdd6341a	-0.10459156
136	0xbdf4114d	-0.11917362
137	0x3ba64ee2	0.0050753215
138	0xbec322da	-0.38112527
139	0xbf012cc5	-0.5045894
140	0xbf15749b	-0.5838105
141	0xbe97b62b	-0.2963117
142	0xbd46e4ad	-0.048557926
143	0xbe2ad074	-0.16681081
144	0xbf050873	-0.5196602
145	0xbdafe846	-0.085892245
146	0xbe40c460	-0.18824911
147	0xbdbfa15b	-0.09356948
148	0xbd96fc21	-0.073723085
149	0x3c721eb8	0.014777832
150	0xbd2ea424	-0.042637005
151	0x3dac4bed	0.08412919
152	0xbe42443b	-0.1897134
153	0xbe19aab2	-0.15006521
154	0xbd1cc70a	-0.038275756
155	0xbcc3c1b5	-0.023896078
156	0x3c45ca38	0.0120721385
157	0xbe210a76	-0.15726647
158	0x3d2aa061	0.041656855
159	0xbe4301e2	-0.19043687
160	0x3df46c8e	0.11934768
161	0xbe25514a	-0.1614429
162	0xbcc31399	-0.023813056
163	0xbd7ff8b0	-0.062493026
164	0xbddeed7a	-0.10885139
165	0x3cb14418	0.021638915
166	0xbc5ac9a5	-0.01335374
167	0xbe1818ec	-0.14853257
168	0xbed7570a	-0.42058593
169	0x3dfabbd9	0.1224286
170	0xbef7542b	-0.48306403
171	0xbe5cdcf9	-0.2156867
172	0xbed66e9a	-0.41881257
173	0xbea79c77	-0.3273656
174	0xbaee085a	-0.0018160448
175	0xbe651d7b	-0.22374527
176	0xbdf46f8b	-0.11935338
177	0x3cd5d3b7	0.02610193
178	0xbe8a8eec	-0.27062166
179	0x3d9b3b81	0.07579709
180	0xbdd46118	-0.10370082
181	0x3d970684	0.0737429
182	0xbc12ce7c	-0.0089603625
183	0x3e0cc9b0	0.13748813
184	0xbe28168a	-0.16414848
185	0xbdb86fb5	-0.090056814
186	0xbb973712	-0.004614719
187	0x3c94d557	0.018168135
188	0xbdd141b3	-0.10217609
189	0x3e21e385	0.15809448
190	0xbe47b695	-0.19503243
191	0xbe97b68d	-0.29631463
192	0x3e0c756f	0.13716672
193	0xbe2f0b02	-0.17094043
194	0x3da0795f	0.0783565
195	0x3de3ce36	0.11123316
196	0x3db40b1b	0.08791181
197	0xbd2321d8	-0.039827198
198	0xbe5d12d9	-0.21589221
199	0xbe201435	-0.15632708
200	0xc01103cf	-2.2658575
201	0xbe075fa5	-0.13220079
202	0xbeb3e107	-0.3513262
203	0xbdec14fa	-0.115274385
204	0xbfa5f9f1	-1.2966901
205	0x3ab95d4e	0.0014142187
206	0xbe352d1e	-0.17692992
207	0xbd16939e	-0.036761872
208	0xbdd5e134	-0.10443345
209	0xbd1bf7cf	-0.038078126
210	0x3b62a88b	0.0034585323
211	0xbc31cdc3	-0.01085228
212	0x3df3935c	0.11893341
213	0xbda30fec	-0.07962021
214	0xbde1a9e8	-0.11018735
215	0x3cdeda5a	0.027203728
216	0x3b335a7c	0.0027367165
217	0xbe16d423	-0.14729361
218	0xbda1ac3e	-0.07894181
219	0x3ca5e6d6	0.020251673
220	0xbe24376b	-0.16036765
221	0xbabb4600	-0.0014287829
222	0x3d00794f	0.03136569
223	0xbcc80871	-0.024418088
224	0xbe17d958	-0.14829004
225	0x3de2ab3a	0.11067815
226	0x3d37186e	0.044701032
227	0xbd8508ed	-0.06495843
228	0x3e08de25	0.13365991
229	0x3dd25c72	0.10271539
230	0xbc2b6ec8	-0.010463424
231	0x3d93411d	0.07190154
232	0xbef7966f	-0.4835696
233	0xbd2f3932	-0.042779155
234	0xbf5e5a84	-0.86856866
235	0xbd02df23	-0.03195108
236	0xbe65b95b	-0.22433989
237	0xbe8aefa8	-0.27135968
238	0x3d63ec6d	0.055645395
239	0xbd9ed368	-0.07755166
240	0xbef01828	-0.4689343
241	0x3db88951	0.09010566
242	0xbe0c2ef2	-0.13689783
243	0x3c2ec40f	0.010666861
244	0xbd983e64	-0.07433775
245	0xbd9d1b9d	-0.076712824
246	0x3d87298b	0.065997206
247	0xbe0203c6	-0.12696752
248	0xbe6de7b5	-0.2323292
249	0xbb577cba	-0.003288074
250	0x3d0490ad	0.032364536
251	0x3cbeb010	0.023277313
252	0xbdc12607	-0.09431081
253	0x3d9a336a	0.07529338
254	0xbe0266be	-0.12734506
255	0xbdd7429d	-0.10510752

fc3.bias f4 [1291]
0	0x3d526c20	0.051372647
1	0x3e29bfd2	0.1657708
2	0x3de930dc	0.11386272
3	0x3cbf2d43	0.023337012
4	0xbe887122	-0.26648813
5	0xbe4572f3	-0.19282131
6	0x3d7f5971	0.062341157
7	0xbdbf72e0	-0.093480825
8	0x3dbbd670	0.0917176
9	0xbda5ab68	-0.08089334
10	0xbe5af9a4	-0.21384293
11	0xbc834ca4	-0.016027756
12	0x3ddba742	0.10725261
13	0xbd9120e8	-0.070863545
14	0xbe640588	-0.22267735
15	0xbe171f10	-0.14757943
16	0xbd87e7e5	-0.06636027
17	0x3c732f4e	0.014842821
18	0xbdd9691b	-0.106157504
19	0xbd9f5cd4	-0.077813774
20	0xbdb47023	-0.08810451
21	0xbd91634d	-0.07099018
22	0xbdb03643	-0.086040996
23	0xbe353fe0	-0.17700148
24	0xbdadcb9d	-0.08486102
25	0xbe4c4b41	-0.19950582
26	0xbddf2dbd	-0.10897396
27	0x3d99bcfc	0.07506749
28	0xbd046bca	-0.03232936
29	0xbe7c0435	-0.2461098
30	0xbe7d8af2	-0.24760035
31	0xbedc07bb	-0.42974648
32	0xbe7e5330	-0.24836421
33	0x3d19faf1	0.037592832
34	0xbe3cf529	-0.18452896
35	0x3d911678	0.07084364
36	0x3da0d57b	0.07853218
37	0xbe381160	-0.17975378
38	0xbb6f7a85	-0.0036541533
39	0xbe1bddb7	-0.15221296
40	0xbe2138de	-0.1574435
41	0xbe417fe3	-0.18896441
42	0x3de1b645	0.11021093
43	0xbe6a4b85	-0.22880371
44	0xbe83fb3e	-0.2577762
45	0x3bcc11c1	0.0062277024
46	0x3db6812f	0.089113586
47	0xbd9684b0	-0.07349527
48	0xbdd29c4a	-0.10283716
49	0xbe5f02df	-0.21778439
50	0x3da06cb0	0.078332305
51	0xbdf67b5b	-0.12035247
52	0xbe5429db	-0.20719092
53	0x3d9bd57b	0.076090775
54	0xbe14b0bd	-0.14520545
55	0x3e0fe255	0.14051183
56	0xbe4a1222	-0.1973348
57	0xbecbcf47	-0.39806578
58	0xbe2b44be	-0.16725442
59	0xbd86b815	-0.065780796
60	0x3e18970f	0.14901374
61	0xbe2c848a	-0.16847435
62	0xbdae3f9b	-0.085082255
63	0xbe1877ac	-0.14889401
64	0xbea57de2	-0.32322603
65	0x3cc0ae7b	0.023520699
66	0xbe14e5bb	-0.1454076
67	0xbd46b1a8	-0.04850927
68	0x3dfa35da	0.122173026
69	0xbe4826c1	-0.19546033
70	0xbe02ba9e	-0.12766501
71	0xbe814fda	-0.25256234
72	0xbe1901a0	-0.14942026
73	0x3e20d3b8	0.15705764
74	0xbd80e619	-0.06293888
75	0xbe6559c4	-0.22397524
76	0xbd2f2886	-0.042763256
77	0xbe252b8b	-0.16129892
78	0xbdd5f5e4	-0.104472905
79	0xbd076e34	-0.033064082
80	0x3d8593e1	0.06522346
81	0xbe47864a	-0.19484821
82	0x3dd7cdaa	0.10537274
83	0xbe2d2e8c	-0.16912287
84	0x3d959dd8	0.07305497
85	0xbd8d8d0d	-0.06911669
86	0x3da50670	0.080578685
87	0x3dee80d6	0.11645667
88	0x3ca46d47	0.020071639
89	0x3d57ed8f	0.052716788
90	0x3d0b7e28	0.03405586
91	0xbd971163	-0.07376363
92	0xbd497131	-0.049180213
93	0xbdb7e136	-0.089785025
94	0x3cfea743	0.031085616
95	0xbd9d2262	-0.076725736
96	0x3b0a5ce3	0.0021112494
97	0xbe324969	-0.17410816
98	0xbe3995b8	-0.1812352
99	0xbe08aad5	-0.13346417
100	0xbddfb549	-0.10923249
101	0xbd9a05cb	-0.07520636
102	0xbe1ad5e1	-0.15120651
103	0xbe4c5a88	-0.1995641
104	0xbe07ecc0	-0.13273907
105	0xbea4a4ad	-0.32156888
106	0xbe11fc9e	-0.14256522
107	0xbc9d0f76	-0.019172411
108	0x3d197d0d	0.037472773
109	0xbd58c353	-0.05292065
110	0xbde616dc	-0.11234829
111	0xbe59f270	-0.21283889
112	0xbd4d3033	-0.050094794
113	0xbeb6749c	-0.3563584
114	0xbe2f4d11	-0.17119242
115	0xbd31ac72	-0.043377347
116	0x3d387edb	0.045042854
117	0xbd056cf0	-0.032574594
118	0x3c3ce5bb	0.011529381
119	0xbd92c916	-0.0716726
120	0x3d3f9d7f	0.04678106
121	0x3d20660b	0.039159816
122	0xbe48a788	-0.19595158
123	0xbe8a5d04	-0.2702409
124	0xbd997867	-0.07493668
125	0xbe346fa1	-0.17620708
126	0x3c1c8ddf	0.009555309
127	0xbd6fed01	-0.058575634
128	0x3d94f42e	0.07273136
129	0xbdbdf626	-0.09275465
130	0xbe44e4d3	-0.19227915
131	0xbe0bc8a5	-0.13650759
132	0xbd8fb635	-0.07017175
133	0x3e191ce2	0.14952424
134	0x3c06041f	0.0081796935
135	0x3dea02dd	0.114263274
136	0x3debf019	0.11520404
137	0x3d85274e	0.065016374
138	0xbd96fce5	-0.073724546
139	0x3d806f10	0.062711835
140	0xbe0c42fe	-0.1369743
141	0xbdff3ace	-0.12462388
142	0xbdaa974f	-0.08329641
143	0xbe27bd8a	-0.16380897
144	0xbc495d22	-0.012290271
145	0xbe01d2fa	-0.12678137
146	0xbdeea9af	-0.11653458
147	0xbe71cbb6	-0.23612866
148	0x3de94d82	0.113917366
149	0xbde4ca29	-0.111713715
150	0x3cf46386	0.029832613
151	0xbe2d0d0c	-0.16899508
152	0x3c99d5fd	0.018778795
153	0xbe3c3cfe	-0.18382642
154	0xbdfc58bf	-0.123216145
155	0xbe9656f7	-0.29363224
156	0xbd5c2fe3	-0.053756606
157	0x3c8b38ba	0.016994823
158	0x3d39ca58	0.045358986
159	0x3c5ade5b	0.013358678
160	0x3d4f38f1	0.050591413
161	0xbe383959	-0.17990626
162	0xbe1c11de	-0.15241191
163	0xbe4db297	-0.20087658
164	0xbd85719a	-0.065158084
165	0xbec46db7	-0.38364956
166	0x3d983fdb	0.074340545
167	0xbdd9540b	-0.10611733
168	0x3da5affa	0.080902055
169	0xbe2f96bb	-0.17147343
170	0xbe183a71	-0.14866044
171	0xbd124937	-0.035714354
172	0xbe658b71	-0.22416474
173	0x3df19402	0.117958084
174	0xba457ed3	-0.0007533852
175	0xbd5e3de2	-0.054258235
176	0xbecb6d73	-0.3973194
177	0xbe074e54	-0.13213474
178	0xbe2a822b	-0.16651218
179	0xbdc9b767	-0.09849434
180	0x3e11120a	0.14167038
181	0xbdff8436	-0.12476389
182	0x3daf4bed	0.085594036
183	0xbccb3cc2	-0.024809245
184	0xbd2215e2	-0.03957165
185	0xbd17a7a8	-0.037025124
186	0xbeb14065	-0.34619442
187	0xbc2d329f	-0.010571151
188	0xbe41b621	-0.18917133
189	0xba98fcbf	-0.0011672004
190	0xba69f14a	-0.00089241995
191	0x3cd56212	0.02604774
192	0x3d9f2093	0.07769885
193	0x3bcf82d9	0.006332737
194	0xbe91e556	-0.28495282
195	0xbc1b3937	-0.00947409
196	0xbb753e59	-0.0037421195
197	0xbc17c19c	-0.009262469
198	0xbe6888f9	-0.22708501
199	0xbe20e523	-0.15712409
200	0xbe069ef5	-0.13146575
201	0xbeb7b0b5	-0.35877004
202	0xbe0c3670	-0.13692641
203	0x3dfde7f8	0.1239776
204	0xbe17474e	-0.14773294
205	0x3ddbe396	0.10736768
206	0x3d4fbfd2	0.050720043
207	0x3d5976d5	0.053091843
208	0xbebe57d5	-0.37176386
209	0xbe861dd1	-0.26194623
210	0xbe9f7c6e	-0.3114962
211	0xbc17bed7	-0.009261808
212	0xbb7f61fb	-0.0038968313
213	0xbe2649a3	-0.16239028
214	0x3e1a1ea3	0.1505075
215	0xbd5c1d0b	-0.053738635
216	0xbc4ea66b	-0.012612919
217	0x3d04c7f8	0.032417268
218	0xbead75a2	-0.3387881
219	0xbe688adc	-0.2270922
220	0xbe992c12	-0.29916435
221	0xbeb157a8	-0.3463719
222	0x3d03a812	0.032142706
223	0xbe2044d5	-0.15651257
224	0x3ddc6684	0.10761741
225	0x3e080a9b	0.13285296
226	0x3e5132fa	0.20429602
227	0xbe38b9d7	-0.18039642
228	0x3e072526	0.13197765
229	0xbe2afdc9	-0.16698374
230	0xbe4f7af8	-0.20261753
231	0xbec42c00	-0.3831482
232	0xbd180f63	-0.03712405
233	0xbe2f3ca9	-0.17112984
234	0xbe336671	-0.17519547
235	0x3d9396e8	0.072065175
236	0x3d20350b	0.039113086
237	0x3e1e12c5	0.15436848
238	0xbc6d7eba	-0.014495546
239	0xbec9f0db	-0.3944157
240	0xbe7248a8	-0.23660529
241	0xbe3cb700	-0.18429184
242	0xbe6a06d7	-0.22854172
243	0xbebade22	-0.364976
244	0xbed1fb91	-0.41012242
245	0xbe37da1a	-0.17954293
246	0x3d818c0d	0.06325541
247	0xbea8393a	-0.3285616
248	0xbddff23e	-0.10934876
249	0xbda4b66c	-0.08042607
250	0x3cf26c5e	0.02959269
251	0xbe1e5a55	-0.15464146
252	0xbe0a4278	-0.13501918
253	0x3d70418f	0.05865627
254	0xbe552ef1	-0.20818688
255	0xbe33bcf5	-0.1755255
