src/server/flask-backend/color_classifier.pth (torch, 182370 bytes, 6 tensors)

fc1.weight f4 [64, 3]
00000000: 48a2 97bd c028 3f3e 261e 8abe 4b56 5bbf
00000010: 34ca c93f 0a23 8dbf c106 b6bf c62f 9fbe
00000020: 1d1c 0b3f c14d 04bf c833 8abd 00df b43b
00000030: c2d0 5fbf 713d f53f 34a1 ea3d ca1e 18bf
00000040: 29e7 e23f 5ff1 d33f 12a5 0ebf 7d37 0dbf
00000050: 4375 0740 1449 bd3f 94c1 1bbf 1b1f 90bf
00000060: c0ed 8ebf 7dfc 3ebf 5f2d 123f de6c 543e
00000070: dbc3 62bf 525d 58bf 69c9 0040 a7d3 a4be
00000080: 90e1 2a3f 497f dfbe 9b68 93be 64a3 a5be
00000090: a0fb c53e 6215 b6bf 81c9 b23e 44e7 6b3f
000000a0: 3fb8 a5bf 34a1 e93f 3e4d 813f 0304 813f
000000b0: 79b5 c9bf 0b80 46bd dfdf bebf 00a1 123f
000000c0: 02c6 a9be b4ee d0be be5a af3e 3e58 af3e
000000d0: 4a6a e73f 3ed1 82be 53f5 b13f f6b7 6dbf
000000e0: 3778 e0bd c587 8dbf 38f4 bd3e 582c 56bf
000000f0: 67a9 12bf 7063 253e 6066 e53c 502f f8be
00000100: 4feb aa3f 7ffc e23e acfc a43f 825f c53f
00000110: ab53 08bf 2bdd ac3f 44b8 7e3f fbce 15bf
00000120: ef83 02be d4f7 dd3f aba8 893f a8a2 a93f
00000130: d772 94bf 28fb 6abf 2448 973f a924 a43e
00000140: 3292 d3bf c00c ebbe 219e fe3f 29b3 12bf
00000150: 680f 743e a0f2 0140 3207 79bf 3574 673f
00000160: 724b 56be e046 cebf ea0c 7e3f c2ad c8be
00000170: 51a6 cbbf 1045 26bd 40aa d53c 3cd0 1e3e
00000180: d224 ac3e 9348 fbbe f26d 4abe d93c 3abe
00000190: 7ddd dcbf 40fa 8e3f 54bf b33f 5102 873f
000001a0: a27f b93f c8e5 ec3f a6ab 58bf 081d d53e
000001b0: b80e 383f 1dbb a6bf 16e7 393f ff9e c8be
000001c0: 706e e6be e9ae 89be 1c82 e0be 1ad8 993e
000001d0: 4a43 f2be 6d32 a23f 23f1 7c3f 2cb7 e13f
000001e0: c403 bc3e 44fd afbf c7bd debe ff8d b5bf
000001f0: de18 a43f 6b18 883f d0cb f43e 6a17 a2be
00000200: da40 0e40 9c05 d63e 4f6c f63f aa1d a83f
00000210: 16c0 34bf 6337 94bf 55f0 8a3f ef17 a63f
00000220: c368 ef3f a5ed 5d3f dcb5 e03f b3b3 5bbf
00000230: 7450 4ebf 2434 63be 70aa ae3d 0044 433b
00000240: 7cec 0dbf 00a1 02bc 207a e1be 07e1 053f
00000250: ad38 b8bf 472a c1be 1093 e93f e806 06bf
00000260: 0bbf 9fbe 181b 513e fde3 87bf c141 5abf
00000270: 6b63 d3be a52f 613d 2278 bdbe 2952 8abf
00000280: 5dc2 4d3e 533a f53f c9c5 043f b6bc ea3f
00000290: de7a 833e 948b ca3f e643 fa3f 7c66 34bd
000002a0: 701f 953f a6bb f73f 536e 363f 0792 02bf
000002b0: d025 0bbf c0fb 49bd 941a 2fbe aa65 5fbe
000002c0: 7080 9e3d 8504 b53f a3b5 54bf d22a 833f
000002d0: b4d0 0abf 1527 8a3f cdb2 de3f 78c6 743f
000002e0: 83e7 92bf 43f5 bd3f 247a 853f a279 4ebf
000002f0: 3663 d63f a961 e8be 345c e23f 4a03 a23f
-0.074039996 0.18667889 -0.26976126 -0.8567855 1.5764832 -1.1026318 -1.4220811 -0.31091136
0.5433977 -0.51681143 -0.06748158 0.0055197477 -0.87427914 1.9159375 0.11456528 -0.5942198
1.7726794 1.6558036 -0.5572063 -0.55162793 2.116532 1.4787927 -0.6084225 -1.1259493
-1.1166306 -0.74604017 0.5710048 0.20744655 -0.885801 -0.84517395 2.012293 -0.32192728
0.6675043 -0.43651798 -0.28790745 -0.3235122 0.38668537 -1.4225276 0.3491936 0.9214976
-1.2946852 1.825232 1.0101697 1.0079349 -1.5758506 -0.048461955 -1.491207 0.57276917
-0.3315888 -0.40807116 0.34248918 0.3424701 1.8079312 -0.25550264 1.3902992 -0.9285883
-0.10960429 -1.1057059 0.37100387 -0.83661413 -0.5728974 0.16151214 0.028002918 -0.48473597
1.335306 0.44333264 1.2889609 1.5419772 -0.5325267 1.3504995 0.9949992 -0.5851895
-0.12745641 1.7341256 1.0754598 1.3252764 -1.1597546 -0.91789484 1.181889 0.3205922
-1.652899 -0.45908165 1.9892007 -0.57304627 0.23834002 2.0304337 -0.97276604 0.9041169
-0.20927218 -1.6115379 0.99238455 -0.39195067 -1.5910131 -0.040593207 0.026082158 0.15509123
0.33621842 -0.49078807 -0.19768503 -0.18187274 -1.7255093 1.117012 1.4042764 1.0547582
1.4492075 1.8507624 -0.84636915 0.41623712 0.7189746 -1.3025852 0.72618234 -0.39183804
-0.45006132 -0.26891258 -0.43849266 0.30047685 -0.47316962 1.2671639 0.98805445 1.7634025
0.36721623 -1.3749166 -0.43504164 -1.4183959 1.2820089 1.0632452 0.47811747 -0.3165849
2.2227082 0.41801155 1.9251803 1.3134053 -0.706056 -1.1579403 1.0854594 1.2976054
1.8703846 0.8669074 1.7555499 -0.85821074 -0.8059151 -0.22187859 0.08528602 0.002979517
-0.5543897 -0.007972956 -0.44038486 0.5229649 -1.4392296 -0.37727568 1.8248005 -0.5235429
-0.31200442 0.20420492 -1.0616452 -0.8525658 -0.41286787 0.054977078 -0.37005717 -1.0806323
0.20093675 1.9158424 0.51864296 1.833884 0.25679678 1.5823846 1.9551971 -0.04404305
1.1650219 1.9354141 0.7126209 -0.5100407 -0.5435457 -0.049312353 -0.17099983 -0.21816126
0.07739341 1.4142004 -0.83089656 1.0247443 -0.54224706 1.0793177 1.7398316 0.9561534
-1.1476902 1.4840473 1.0427899 -0.80654347 1.6749027 -0.4538701 1.7684388 1.2657254

fc1.bias f4 [64]
00000000: c262 babe ff0c 933f 2ba7 d33f 9da1 a4be
00000010: 5da1 5a3f c01c ae3e 7b23 5b3f 55af 913f
00000020: db79 c23f 1bca bf3f a868 06be 289c fcbe
00000030: 99d9 713f 87ac e93e 96b3 583f c4ef a73f
00000040: 9d20 10bf c00f 403e 862f 2a3f 636a ca3f
00000050: a981 a4be 2b16 7b3f f125 1bbe 59ab 5bbd
00000060: 40d3 453e 5bf8 a23f ed64 923f 0344 023f
00000070: 5748 433e ec31 853f fcdc 893f 78ff 0ebf
00000080: 86d4 b5be 6bf2 9e3f 9a5a f23e b578 8b3e
00000090: 9600 943f a788 8abe 6cd0 f9be 7dc6 9f3e
000000a0: 27c7 bb3f ff35 8c3f 32dd 96bd 6b0c 663e
000000b0: 5697 943f 682d d2be f769 353f 4501 c7be
000000c0: c8df 36be 98d4 b73f e684 043f dc3c d73f
000000d0: bfdd 80bd d90c 823f df1f 473f 12d0 4fbe
000000e0: 0307 c2be 1b8b 12bf f40d c6be bdb3 903f
000000f0: cde1 a73e 4f3b b73e c4d1 373f f158 6d3f
-0.3640347 1.1488341 1.6535391 -0.3215455 0.8540247 0.3400631 0.85601014 1.1381632
1.5193437 1.4983553 -0.1312586 -0.49337888 0.9447265 0.4563944 0.84649026 1.3120046
-0.56299764 0.18756008 0.66478765 1.5813717 -0.32130173 0.980807 -0.15151192 -0.053630207
0.19318867 1.2732042 1.143705 0.5088503 0.19070564 1.040586 1.0770564 -0.55858564
-0.35513705 1.241773 0.47334749 0.2724053 1.1562679 -0.27057382 -0.48791826 0.31206122
1.4670151 1.0953978 -0.073664084 0.22465675 1.1608684 -0.41050267 0.70864815 -0.38868156
-0.17858803 1.4361753 0.51765287 1.6815448 -0.06292295 1.0160171 0.77783006 -0.20294216
-0.37895975 -0.5724351 -0.3868252 1.1304852 0.3278946 0.35787436 0.7180445 0.9271384

fc2.weight f4 [32, 64]
00000000: 54ff be3d 7481 8a3f 42f1 dc3f f075 af3d
00000010: 7d29 3c3f 7656 003f 5f10 033f 12ea fcbd
00000020: bbf2 d33f 54e0 6e3f 0d41 99bf 381e 463d
00000030: f31b cc3e 5696 5dbe fae2 ce3d be3e 3c3f
00000040: 1a76 f53d ead8 843d aa44 b4be bded eb3f
00000050: 70fa fcbd 9b38 0b3f ce51 2abf e975 29bf
00000060: 56e6 df3d 266a aa3d 60b2 a23d 4ce0 163f
00000070: 18c7 773b f66d 8c3e de39 3e3e 90d8 1cbd
00000080: 9a7e d9bd b4e9 203f 9840 44bd fe73 67bf
00000090: ee6b f53d 409d 473b 14b1 5c3d 8017 3cbe
000000a0: 9e3d 213f 96a5 933f e627 99be 64a4 06be
000000b0: 317d 963f e8da 0fbf b13d f6be 0067 713a
000000c0: c87e 153d b9de f63e 6b51 09bf f4cf 683f
000000d0: 5681 09bd 0f19 4b3f 8114 b83d c6e9 16bf
000000e0: 43d1 03bf dcf4 ccbd 067d a83d 44f8 9b3c
000000f0: 6d55 d63e b81f 84be 3f25 52bd 500d db3e
00000100: c833 ad3d 2115 893d 1fc1 4bbd dcb3 c33d
00000110: 9382 2a3c 6db7 913d f878 e5bd a52a 3cbd
00000120: a4e1 95bd 327f 39bd 848a 9abd 5871 a83d
00000130: 6beb a7bd 9425 d5bd 3d0c 9f3d df2f 40bd
00000140: 869a bfbd ab54 05be 91e3 c8bd 1a23 0bbc
00000150: 30cb fabd 531e 27bc 0d1b 663b 5b5d 5b3d
00000160: 6298 99bd 3ee7 ab3c 31db dc3d a553 6a3d
00000170: 7ade ebbd fcf7 833d 036f a7bc 0406 ee3d
00000180: d4a3 1d3d f0b6 c63d 43b7 053d ad97 f63c
00000190: db78 debc 7e44 e63d a06c debd bdf3 d33d
000001a0: d22a b1bd 4150 b6bd e0a0 75bd cb0e d13d
000001b0: 70cd e93c 736d 5b3c b284 81bc a026 b03b
000001c0: da7b ba3d 2d61 b13c dc72 253d cf30 d03d
000001d0: d26d 653d 39af 893c c546 4bbb dea7 cabd
000001e0: ad20 c1bd 4222 b13d d695 823d 6d5f 07be
000001f0: ddd5 15bc 58aa 69bd 743c d3bd 9461 8ebc
00000200: e0a7 383c 3afa 2c3f 7bc0 23bf 8812 7abd
00000210: b8e2 1d3f df23 f63e 447f e0be 7cab 973e
00000220: 137a 93bf d53d 96be 9261 6d3e 9a3c 8ebd
00000230: 5fb3 32bf 3140 c9be 5247 143f bbf6 45bf
00000240: a067 84bb 211a 823f 0faf 8bbd 9331 b5bd
00000250: e43a 463d 87dd e03e 0d8d 993f d1c8 813f
00000260: 1b7c 613f 97e1 a5bd 9716 003f 4edd 6c3f
00000270: 03d5 a03f 3738 893e 2971 553e 6263 b33d
00000280: 76b7 e63d fca1 44bf c3c6 e93e c61d ad3d
00000290: 7fbd 86be c485 1abd 2833 3ebd 16f1 fc3e
000002a0: b651 bdbe 79ef e73d 8fb6 8bbe 8fc6 113f
000002b0: 3e3a 8dbf fb23 823f 6a62 a3ba 4450 703d
000002c0: a04c 6fbc b9cf fcbe b4f8 973e a986 bdbe
000002d0: df0e 31bd 307b 9ebe 0c15 1c3f 72e2 833f
000002e0: 824e 823f a0b0 403d c041 a9bc 3a99 a13c
000002f0: 42f8 a93e 66dd 92be 468a 06be 8497 b03e
00000300: b6dc 863d 4229 573f 9e2d 773e 78e9 40bd
00000310: e13d 303f f835 023f bafe 5dbe 2896 093e
00000320: 9214 4cbc 6405 6bbd 8bd7 60be 0869 f83c
00000330: 6717 eebe 48af c8be 3d4b f53e 2b37 cabe
00000340: a859 a5bc 3d9f 153f 0024 acbe f517 063f
00000350: 8096 163d e448 e93e f859 ea3e 505c b43e
00000360: 9865 e13e 39ae 22bd f7b6 ab3e 89d2 823f
00000370: cd20 533f cc9d 013e 1caa f63d 6ad9 efbd
00000380: 301b 293c bb95 93be 8c6c 8e3d 8a90 a0be
00000390: f729 bebd e2a4 cb3d 203b 4fbc c81d 453e
000003a0: 7b9d 52be 07e1 a83e 71b0 97be 9879 c93e
000003b0: 02a0 a4be 5005 993e 5206 04be e891 023d
000003c0: 2052 28bc 6f32 29be e824 25be f747 4ebd
000003d0: 3911 ef3c 42c5 4e3d c499 d63e d128 c23e
000003e0: 17f0 013f 14d6 70bd 5c9f 7cbd d841 c7bd
000003f0: deff a33e e5a8 a7be 9f5d 37be af7c d83e
0.09326044 1.0820756 1.7261126 0.08567417 0.73500806 0.5013193 0.51196855 -0.12349333
1.655845 0.9331105 -1.1972977 0.048368663 0.39865074 -0.2163938 0.10101886 0.73533237
0.11985417 0.064866856 -0.35208637 1.8431927 -0.12352455 0.5438325 -0.66531074 -0.6619554
0.10932605 0.083210275 0.079441786 0.58936 0.0037807878 0.27427644 0.18576762 -0.038292468
-0.106198505 0.628566 -0.047913164 -0.90411365 0.119834766 0.0030458719 0.053879812 -0.1836834
0.62984645 1.1534908 -0.29913253 -0.13148648 1.1756955 -0.561934 -0.48093942 0.00092087686
0.03649786 0.482168 -0.5363986 0.9094231 -0.03357061 0.7933511 0.08988286 -0.5895046
-0.51491183 -0.10007641 0.08226971 0.01903928 0.4186205 -0.2580545 -0.051305052 0.42783594
0.08457142 0.06693483 -0.04974472 0.0955579 0.010407108 0.07115064 -0.112047136 -0.045939106
-0.07318428 -0.04528732 -0.07545951 0.082247436 -0.08199199 -0.10407558 0.07766006 -0.046920653
-0.09355645 -0.1302058 -0.0980903 -0.008492256 -0.12245786 -0.010200101 0.0035111338 0.053555828
-0.07499768 0.020984288 0.10783995 0.057208676 -0.115170434 0.06443784 -0.020438677 0.11622241
0.038486317 0.09702861 0.032645475 0.030101622 -0.027157238 0.112435326 -0.10860562 0.10349224
-0.086507455 -0.08902026 -0.059967875 0.102079 0.028540343 0.013392794 -0.015810344 0.005375698
0.09105654 0.021652782 0.04039274 0.101655595 0.056012936 0.016807185 -0.0031017524 -0.098952994
-0.094300605 0.08649112 0.06376235 -0.13219996 -0.009145227 -0.057047218 -0.10314265 -0.017380513
0.011270493 0.67569315 -0.63965577 -0.06105283 0.6167407 0.48074242 -0.43847096 0.2962302
-1.1521629 -0.2934405 0.23181751 -0.069451526 -0.6980495 -0.39306787 0.57921326 -0.77329606
-0.0040406734 1.0164224 -0.06820499 -0.08847346 0.048396006 0.43919012 1.199617 1.0139409
0.88079995 -0.080996685 0.5003447 0.92525184 1.2565006 0.268007 0.20843948 0.0875919
0.11265461 -0.7680967 0.45659456 0.084529445 -0.2631645 -0.037725225 -0.046435505 0.49402684
-0.36976403 0.11324973 -0.2728772 0.569436 -1.1033399 1.016723 -0.0012465243 0.058670297
-0.014605671 -0.4937723 0.29681933 -0.370168 -0.043227073 -0.3095336 0.60969615 1.0303481
1.0180209 0.047043443 -0.020661235 0.019726384 0.33197218 -0.2868454 -0.13138685 0.34490597
0.06585066 0.8404733 0.24138495 -0.047097653 0.6884442 0.508636 -0.21679202 0.13436186
-0.012456076 -0.057378188 -0.21957223 0.03032352 -0.4650223 -0.3919623 0.47908965 -0.39495215
-0.020184353 0.58446103 -0.33621216 0.52380306 0.03676462 0.45563424 0.45771766 0.3522668
0.44022822 -0.039716933 0.3353803 1.02205 0.82471925 0.12657851 0.120441645 -0.1171139
0.010321423 -0.28825173 0.069542974 -0.31360275 -0.09285348 0.09943558 -0.012648374 0.19249642
-0.20567887 0.32984182 -0.29626802 0.3935058 -0.32153326 0.29886866 -0.12893036 0.03187743
-0.010273486 -0.16523145 -0.1612736 -0.0503616 0.029183017 0.05048109 0.4191419 0.37921765
0.50756973 -0.05879791 -0.061675414 -0.097293556 0.3203115 -0.32746044 -0.17906807 0.42282626

fc2.bias f4 [32]
00000000: a35a 1f3f d923 9abd 9fc3 753d b202 593e
00000010: a275 d7bd b04e 14be 8328 17be af14 b33d
00000020: 8e22 9b3d 70f7 013e ac8a cfbd 2abd a1bd
00000030: c6e3 6b3e b4f2 6f3c c37f 3bbd 7909 bc3e
00000040: 0436 9fbd d740 0abd 3a65 7a3e c007 18bc
00000050: 1c5d 7fbb 34af ad3e 7068 a63c 9da9 863d
00000060: d8f6 b2bd d683 55bd 7537 d23e 6f39 81bd
00000070: 69f2 163e f12f 47bd 333f 083e 584e 35bd
0.62247676 -0.07526369 0.060001012 0.21192434 -0.105204836 -0.14483142 -0.14761548 0.087441795
0.0757495 0.12692046 -0.101338714 -0.07897408 0.23036107 0.014645267 -0.04577614 0.36725977
-0.077739745 -0.033753242 0.24452677 -0.0092791915 -0.003896541 0.33922732 0.020313472 0.0657532
-0.08738488 -0.05212768 0.41057935 -0.06309783 0.1474091 -0.048629705 0.13305359 -0.044264168

fc3.weight f4 [1291, 32]
00000000: 3026 c0bb 280d 4c3c 38d3 bbbf 3da0 abbd
00000010: a4eb c53c d35f abbd c3bf 12bb b2d8 e33d
00000020: f7d9 06be df7a 1ec0 4c42 adbd 4020 153d
00000030: 9dfb 38bf 5565 b3bd be2e 68bd 9abd aebc
00000040: b9c4 153e 0222 b4bd e2e0 713d 5582 e23d
00000050: c488 fb3d aea3 81bd bb8c 013e b5ac 31be
00000060: 340f 7b3d 6ea7 04be cfe8 eebe cd50 1c3d
00000070: 03a0 e4bd c8a7 cdbd 5f44 a13d 1bf0 1fbe
00000080: 3141 993d 7cd6 d3bd 2f8d 893d 123d a23b
00000090: 04cc 0abe 387b 833d 613b 903b 262d 6ebc
000000a0: 94bb 863d 3403 eabd 3532 8a3d 24f4 0abe
000000b0: 5dde 63be 884a a33c 2ecd b4bd 1ca7 54bd
000000c0: db59 253e 64dd 11be c806 14be 1422 25be
000000d0: e31c bf3b d003 44bf 6220 32be 88a2 093c
000000e0: e586 2a3e 5241 aa3d 4a28 85be 90ac e5bd
000000f0: 91c9 db3b 3400 43bd 88cf 79bf d886 c6bc
00000100: a171 66be 1071 7c3d 6f62 113d ec9b 3fbe
00000110: 16fb 73be 6150 56bd f155 ee3d 72a9 ed3d
00000120: 3d63 0cbd aac5 81bf 850c bebd e3d2 06be
00000130: a862 c4bf 30a6 8e3d d7b9 08be c390 e6bd
00000140: 8a35 e73d 63d6 64bd 925d c7be 88b2 20be
00000150: dabf dfbd e607 523d cfb9 1b3e 1657 f33c
00000160: 01fa 2d3e 3c0a a0bd fc43 b9bf ac66 8f3d
00000170: 74f7 31be 6a30 1a3d b1dd a13d 104d 0cbd
00000180: a0ee 80be d094 3bbe cf3c 553d 9a68 52bd
00000190: 4f13 803d d32a eeba 1a24 91bc c8e4 0e3a
000001a0: 33ba a33d 13b9 f5be 734b 123e 8af5 f33d
000001b0: 7389 c6bf 5e72 05be 1405 97bc 69cc 31be
000001c0: e9af 2d3e 7157 0cbe 971c 78bf de70 af3d
000001d0: 732e a83d 78b5 91be c0ad f8bc e6e6 243e
000001e0: 98d6 41bd 527e 60be 108c eabf 4258 9e3c
000001f0: 8631 473e ef6d 343d 0fd4 20be f0ec 6cbc
00000200: 448f 3dbe a497 d2bd daca 75be 7c1d d93c
00000210: 8138 9fbe 5f09 85bd c4fe bebd a9fc 4abe
00000220: 7680 09be f5c3 bfbe 1105 bebd 6e51 b83d
00000230: 2df3 34be a9b7 ac3d 569b 04be 6916 6dbe
00000240: 3a84 f23d 98b1 1cbe 8319 44be 1092 583c
00000250: d6da c33d c3f1 983b c3e3 2bbe 1af9 ab3d
00000260: d09c 05bc 76b4 803c 0627 e4be 7ded 7ebd
00000270: 3809 8abe f46f 403d 0d71 4ebe ac1c f2bd
00000280: de45 06be 3dcc 7e3c c75a 16be fdf3 813d
00000290: 0c91 eebd 4888 de3c 4dfd 523d 28f8 39be
000002a0: 70f2 113e 1f13 2abf 1510 f9bd d83b 773d
000002b0: 5d60 c1be fc1e 423c 44af 113e 8ea4 e33d
000002c0: 26c4 c93d e2b8 8abc bc81 3b3d 947a 133e
000002d0: b5f7 1d3e 83f4 cdbc 5047 50bc 7a49 21bb
000002e0: 7403 4dbd 57e3 b43d c9d1 35bf b4c0 c43d
000002f0: ed6a 10be 253a 69be 5fdb 53be 88e1 f93c
00000300: 9a89 a63c b5dc 51bb a9e9 f3bf b756 f8bc
00000310: 8dfd e23b c9c7 eebd 78a0 57bd 1dcf a33d
00000320: 40e0 d33c 19d5 82bf 76da db3a abd9 97bd
00000330: 21e8 4dbe 116c 063e 87f6 6cbd ce9d 42bd
00000340: e0d0 2b3d dd16 f03d 24a3 d43d 113d b03d
00000350: f8b2 d83c b4c7 9d3d 1091 353d 1975 213d
00000360: fa17 9c3d efe2 e5bd 2fe2 9bbe ba13 e23c
00000370: 0abe 89be 2ba7 3dbf 13d1 4dbc a6fe d23d
00000380: 7ad6 25be 333f 87bd 9448 53be 545a a83d
00000390: 189a 84be 52c6 c1bc bf9b 46be 5845 c23d
000003a0: 9ed4 113e 0353 2abf d3d4 1a3e d4d3 5ebd
000003b0: a240 45bf d6cc 0b3e 09f7 bd3d 7547 dfbd
000003c0: af3f 003e 52ad 32be de01 69be dece 11be
000003d0: 20d4 10be eb8b 3c3d 1e79 00be 7bf6 5f3a
000003e0: 80f4 be3c dfd8 65be d074 2abf fa89 72bd
000003f0: ec74 c9bc d9fd 30be 0f90 c7bd 844e 4d3d
-0.0058639273 0.012454309 -1.4673834 -0.083801724 0.024160214 -0.083678864 -0.002239213 0.11125316
-0.13169084 -2.4762495 -0.08459911 0.03640771 -0.7225893 -0.08759562 -0.0566852 -0.021330643
0.14625825 -0.08795549 0.059052356 0.11060015 0.12281945 -0.063300475 0.1265134 -0.17351039
0.061293796 -0.12954494 -0.46661994 0.038162995 -0.11163332 -0.10041767 0.07874369 -0.15618937
0.074831374 -0.10343644 0.06716382 0.004951128 -0.13554388 0.064199865 0.00440161 -0.014537131
0.065787464 -0.11426392 0.067478575 -0.13569695 -0.22252794 0.019933 -0.088281974 -0.05191718
0.16147558 -0.1424461 -0.14455712 -0.16126281 0.005832301 -0.7656832 -0.17395166 0.008400567
0.1665302 0.0831324 -0.260073 -0.11214554 0.006707378 -0.047607616 -0.9758229 -0.02423422
-0.22504283 0.061631262 0.035494264 -0.18711823 -0.2382625 -0.05232275 0.11637486 0.11604585
-0.03427433 -1.0138447 -0.09279732 -0.13166384 -1.5342607 0.069652915 -0.13352142 -0.1125808
0.11289509 -0.055868518 -0.38938576 -0.15693104 -0.10925265 0.051277064 0.15207599 0.029704612
0.169899 -0.07814452 -1.4473872 0.07002005 -0.17379552 0.037643827 0.079036124 -0.03425318
-0.25182056 -0.18318486 0.052059945 -0.051369287 0.06253683 -0.0018170722 -0.01771741 0.0005450961
0.07994499 -0.47992763 0.14286594 0.11912067 -1.5510696 -0.13031909 -0.018435039 -0.17363133
0.16961636 -0.13705231 -0.96918625 0.085664496 0.082119845 -0.28458762 -0.030356288 0.16103706
-0.047323793 -0.21923187 -1.8323994 0.019329194 0.19452485 0.044050153 -0.15705894 -0.014460787
-0.18511683 -0.102828294 -0.24003163 0.026503317 -0.31097797 -0.06495928 -0.093259364 -0.19822945
-0.1342791 -0.3745419 -0.0927831 0.089999065 -0.17670889 0.08433468 -0.12949881 -0.2315308
0.118416265 -0.15302122 -0.19150357 0.013218418 0.09563224 0.004667492 -0.16786103 0.08397122
-0.008155063 0.01571105 -0.44561023 -0.062238205 -0.26960158 0.046981767 -0.20160313 -0.11821875
-0.1311259 0.015551624 -0.14683066 0.06345365 -0.11648759 0.027164593 0.051511098 -0.1816107
0.14252639 -0.66435426 -0.121612705 0.060359806 -0.37768832 0.011848208 0.14227015 0.11115371
0.098518655 -0.016933862 0.04577802 0.14402229 0.15426524 -0.025141006 -0.012712315 -0.0024610446
-0.05005212 0.08832424 -0.7102323 0.09607068 -0.14103289 -0.22776087 -0.20689152 0.03050305
0.020329285 -0.003202242 -1.9055682 -0.030314786 0.0069271983 -0.116592 -0.05264327 0.07998488
0.025863767 -1.0221282 0.001677348 -0.07414564 -0.20108081 0.13127162 -0.057852294 -0.047513776
0.041947246 0.11723111 0.10382679 0.086053975 0.026452526 0.07704106 0.044327796 0.039418314
0.07621761 -0.11224925 -0.30446002 0.027597297 -0.269028 -0.74083203 -0.012562054 0.103024766
-0.16195098 -0.06603851 -0.20633155 0.08220354 -0.25898814 -0.023654137 -0.1939535 0.094858825
0.14241263 -0.66532916 0.15120248 -0.054401234 -0.77051747 0.13652357 0.09275634 -0.10902301
0.12524293 -0.17448929 -0.22754619 -0.1423907 -0.1414342 0.046031874 -0.12546203 0.00085435034
0.023309946 -0.22446011 -0.6658449 -0.059213616 -0.024591886 -0.17284335 -0.09744274 0.050123706

fc3.bias f4 [1291]
00000000: a023 f33d 230b 1dbe 42bc 223c bfbf 53bd
00000010: 8ba2 68be 7941 8d3d c6c5 053e d79c c33d
00000020: 2012 29be 33a3 28be e2aa 63be 3824 01be
00000030: cb6c efbd 7187 e93d 2342 e63b 424f 11be
00000040: 058a 3abc 7ffe 47be 8fe8 7d3d f366 03be
00000050: 1e62 303d c29e 2e3e 1c82 91bd 0119 bebe
00000060: 1f22 70bd ef59 94bd b472 4bbe 44aa b9bd
00000070: d17d 983d 7b0e 02be 4b06 34be c1b2 91be
00000080: f7d3 8abe 1d80 fe3d 33ca 243e 20d0 8bbe
00000090: 293d 953b 2b3b 9fbc 3b0a b8bd 3160 ebbd
000000a0: c7ad 2bbe 772b d53d 66f7 3fbe 42e9 99be
000000b0: 8e2f 5dbe 8f99 4fbe b49b 2d3d d967 b1bd
000000c0: d377 92be 09c6 87be 91eb c9bd 1e9b 67be
000000d0: f9e4 42be b637 f7bc 6f7e babe a3cf 5ebe
000000e0: 7cf3 c03c d089 26be 6030 943c d530 b1be
000000f0: ac3f 1cbd 0ac7 9d3c 101d f1bd 8dcc 28be
00000100: a25a 8dbe c754 c2bd faa8 24be e5b2 173e
00000110: ac82 61bc e8ef 1d3d 73b6 893d 2e35 b2be
00000120: c6ba 06bd 0997 803d 35de 06be 5871 6ebe
00000130: b882 d0bc 3837 3ebe 77f9 47be 7757 67bd
00000140: c711 5c3d a8bd a6be 3989 24be 909d f73c
00000150: 7138 ccbc 6af6 d6be 9a90 47bc a9e1 a23d
00000160: 0f60 943d 9902 f43c b9d4 25bd da75 91bd
00000170: 1307 05bd 33c8 7fbd 1d67 a13d 21b2 233e
00000180: 9996 0ebd aa76 343e 9685 2f3d a64a 1d3e
00000190: e52a 18be f913 233e c789 fdbc 0fb2 ecbd
000001a0: 75e1 993d 933d 17be 0b42 f4bd 26fe 89bd
000001b0: fd40 b6bd 9ad6 7c3b a520 e93d e5eb 00be
000001c0: 8964 723d 55f8 4bbe 5280 28bc 29a4 2fbe
000001d0: 2a93 fabd 7ca0 943c 55f6 d03a 972e 88bd
000001e0: e94c 073e a418 2dbe 0512 6ebd d4db 4abe
000001f0: 92b3 49bd 77d2 69b9 4032 d43c 3db6 d63d
00000200: 6466 82be c192 d3bd d3b5 7fbd f697 37be
00000210: 2cb8 20bd 2d50 2a3e 6370 52be 645c 903d
00000220: ef18 c1bd dca0 45be bd5e d73c d6d6 953c
00000230: 3f95 dabe 695d ad3d 5532 5ebd f2d2 e3bd
00000240: cd7f c5bd ba54 13be dc60 813d 028d 8abe
00000250: c302 21bd 9328 63be edb9 403d c29c 81bc
00000260: 70c5 e1bc 9b32 05be 98c8 49be 3739 cebd
00000270: 65a2 2dbe 5c31 53bd e4d5 af3d 2e6d 813d
00000280: 379c c7bd bbd3 ffbd 7e80 04be 9815 be3d
00000290: a5bb 883d 6c01 c8be 5120 593d b3cd f7bd
000002a0: 0b73 00be cd2a 36be 8541 c2be d9e2 913d
000002b0: 868a acbe 6fca 44be 85ee c2bd 5eca f9bd
000002c0: 63b3 b1be 2df3 b7bd 6c03 66bc 20ab e43d
000002d0: 5aa8 a13d ec9e 033d 90db a1bd 1c9b 1f3d
000002e0: 4002 043e 702e 113c 9478 c8be 1ff3 1dbe
000002f0: 8955 743d 97b8 47bd 92e4 c3bd 2f1a bebd
00000300: 0de8 25bd 1228 753d 7b46 d0bd bde6 e93d
00000310: 4244 2c3d 67ad 80bb 94db c0be aae5 03bd
00000320: a0f2 30be 5bd6 bcbe cac6 623c a6ca c8bd
00000330: 1afc a1bc e283 123e b81a 913d 063d debd
00000340: 01d9 efbd a6b2 c5be df2f 8cbe b305 2bbd
00000350: 9893 363e 6b19 903d c7f5 42be 4d49 37be
00000360: 5811 e93c 0762 99bd 8499 3abe bdbe c53c
00000370: b85b 62be ead2 33be d956 8abd b93e c23d
00000380: 7ff1 403e cb72 16be d6da b23c 8a98 113d
00000390: 4b09 93bd b20d 2cbe e87f 463c bd8d cfbe
000003a0: ab54 f63c 32c3 b2bd a42a f7bd c814 2d3e
000003b0: 088e b8bd 04b8 d0bb cc95 babd 069a 25be
000003c0: a8d1 bebe b50e 4c3d cc53 3cbe 2a02 c8be
000003d0: 632b 95be 512a 79bd 3983 babd 3256 91be
000003e0: e0ef dcbd d044 19be a605 9a3d bc1a e9bd
000003f0: 01e4 a2bd 49ba debb 6610 92be c872 64bd
0.11872029 -0.1533628 0.0099325795 -0.051696535 -0.22718255 0.068972535 0.13063726 0.09551399
-0.1651082 -0.16468506 -0.22233155 -0.12611473 -0.116906725 0.114027865 0.007026927 -0.1419039
-0.0113854455 -0.19530676 0.061989363 -0.12832241 0.04306232 0.17052749 -0.071048945 -0.3712845
-0.05862629 -0.07243716 -0.19867975 -0.09065679 0.074458726 -0.12700836 -0.17580526 -0.2845669
-0.2711484 0.124267794 0.16092758 -0.27307224 0.00455441 -0.019437393 -0.08986326 -0.114929564
-0.1676551 0.10408681 -0.18746719 -0.30060774 -0.21600172 -0.20273422 0.04238482 -0.086623855
-0.28607044 -0.26518276 -0.09859384 -0.22617766 -0.19032659 -0.030177932 -0.36424586 -0.21758895
0.023553602 -0.16263509 0.018089473 -0.34607568 -0.03814666 0.019259948 -0.11773121 -0.1648428
-0.2760821 -0.09488826 -0.16080084 0.14814337 -0.013764065 0.03855887 0.067242526 -0.34806198
-0.032892965 0.06278808 -0.13170703 -0.23285425 -0.025452957 -0.18575752 -0.19528757 -0.056479897
0.05372789 -0.3256657 -0.16067971 0.030226499 -0.024929257 -0.41984874 -0.012180472 0.079531975
0.07244884 0.029786395 -0.04048607 -0.071025565 -0.03247745 -0.062446784 0.078809954 0.1598592
-0.03481159 0.17623392 0.042852007 0.15360507 -0.14860113 0.15925588 -0.030949486 -0.115573995
0.07513706 -0.14769582 -0.11926659 -0.06737928 -0.08899114 0.003858006 0.113831796 -0.12589987
0.05917791 -0.1991895 -0.0102845 -0.17152466 -0.122351006 0.018142931 0.0015942553 -0.06649511
0.13212933 -0.16903931 -0.058122654 -0.1981042 -0.049243517 -0.00022299016 0.025902867 0.10483978
-0.25468743 -0.103307255 -0.06242926 -0.17929062 -0.03923814 0.16632147 -0.20550685 0.07048872
-0.09428584 -0.19299644 0.026290292 0.018290918 -0.4269199 0.08465082 -0.05424722 -0.11124219
-0.09643517 -0.1438779 0.063173026 -0.27060705 -0.039309274 -0.22183447 0.047052313 -0.015821818
-0.027559966 -0.13007586 -0.19705427 -0.100695066 -0.1695648 -0.051560745 0.08585718 0.063196525
-0.097465925 -0.12491556 -0.12939641 0.092814624 0.06676415 -0.39063585 0.053009335 -0.12099781
-0.12543885 -0.17789765 -0.37940612 0.07123346 -0.33699435 -0.19217847 -0.0951815 -0.121968016
-0.34707174 -0.08981929 -0.014038902 0.11165452 0.07893439 0.03213398 -0.07903206 0.038966283
0.12891483 0.008861169 -0.39154494 -0.15424775 0.059651885 -0.048760023 -0.09565081 -0.09282338
-0.040504504 0.059852667 -0.10169693 0.11420963 0.042057283 -0.003926921 -0.37667525 -0.032201447
-0.17280054 -0.3688229 0.01384134 -0.09804277 -0.019773532 0.14308122 0.07085174 -0.10851483
-0.11711312 -0.3861286 -0.27380273 -0.041753482 0.1782974 0.07036098 -0.19039069 -0.17899056
0.028450653 -0.074894 -0.18222624 0.024138803 -0.221053 -0.17560926 -0.06754846 0.0948462
0.18842123 -0.14692228 0.021832865 0.035545863 -0.07179507 -0.168021 0.012115456 -0.40537825
0.03006967 -0.08728637 -0.1206868 0.16902459 -0.09011465 -0.0063695926 -0.09110603 -0.16172037
-0.3726933 0.049818713 -0.18391341 -0.3906415 -0.29134664 -0.06083137 -0.0910706 -0.28386074
-0.1078794 -0.14967656 0.075206086 -0.11382052 -0.079536445 -0.0067971093 -0.28528136 -0.055773526
